src/model/b2d.pt (torch, 3359 bytes, 4 tensors)

weight f4 [64, 2]
0.3435837 0.27726454 3.835346 2.894575 5.510926 12.873075 -0.6184482 0.33205038
3.3255017 17.170715 2.379902 -9.588353 4.9251356 6.0151277 1.4128197 -11.782762
5.1699467 6.2136407 0.58771396 -6.936453 1.8888958 2.96439 3.615358 7.6886134
1.8795062 1.8141682 -0.20010674 0.011739314 3.6000082 8.968687 2.5432339 1.7899399
-0.5351272 0.17573518 5.3036065 6.1179166 6.1454754 8.180988 -0.6352201 0.18707395
3.2192228 1.4356769 -0.4137175 0.30042678 -0.31739476 0.6588356 -0.67640024 -0.58217365
-0.2246885 20.354197 3.673175 11.80162 -6.206419 -22.696386 -0.6052075 0.040127933
3.424926 14.859834 7.177992 5.2618074 -0.5244783 0.16179687 1.8654073 -24.822096
4.3309913 9.175992 -0.41864145 0.19276875 2.2776299 9.286608 3.294691 4.2786026
-0.557649 0.19709814 3.0604033 1.5728474 6.3846164 10.58016 -3.350975 7.924938
2.4235933 0.6719506 1.2072573 -10.448849 5.2201943 11.17745 0.051015377 0.10410154
-0.92971206 17.125818 0.78488696 -6.7585917 -0.2013573 -0.19985831 0.014577925 0.40843624
4.189617 6.9269648 -0.3661075 0.44678658 -0.3580911 -0.3118302 -1.4696772 17.669146
-0.4253592 5.1739273 -2.2521546 17.883217 6.8298755 2.6858912 -0.104809105 -0.35931757
-0.63707364 -0.48210365 1.5330455 -13.618771 -0.6957206 0.2903214 -4.547104 15.390229
2.3465152 2.4265597 4.2767935 2.977048 4.7012973 11.269771 5.079235 8.837201
00000000: 34ea af3e 9ef5 8d3e 4f76 7540 b840 3940
00000010: 8159 b040 1df8 4d41 9f52 1ebf 8202 aa3e
00000020: 05d5 5440 a05d 8941 5050 1840 e569 19c1
00000030: b69a 9d40 ed7b c040 47d7 b43f 3186 3cc1
00000040: 3470 a540 25d6 c640 6c74 163f 6cf7 ddc0
00000050: 56c7 f13f 91b8 3d40 0762 6740 1f09 f640
00000060: a993 f03f aa36 e83f c8e8 4cbe 4056 403c
00000070: 8966 6640 be7f 0f41 58c4 2240 c01c e53f
00000080: 19fe 08bf ecf3 333e 25b7 a940 f9c5 c340
00000090: bca7 c440 54e5 0241 c99d 22bf 5090 3f3e
000000a0: bf07 4e40 43c4 b73f c8d2 d3be 8ad1 993e
000000b0: 9181 a2be 73a9 283f 9128 2dbf 5509 15bf
000000c0: be14 66be 65d5 a241 4d15 6b40 6fd3 3c41
000000d0: fc9a c6c0 3392 b5c1 e1ee 1abf 305d 243d
000000e0: fd31 5b40 e1c1 6d41 1cb2 e540 ba60 a840
000000f0: 3644 06bf 14ae 253e abc5 ee3f a793 c6c1
00000100: 7b97 8a40 ddd0 1241 2c58 d6be 2c65 453e
00000110: b0c4 1140 f295 1441 38dc 5240 50ea 8840
00000120: 16c2 0ebf 18d4 493e a6dd 4340 1053 c93f
00000130: c74e cc40 5648 2941 6076 56c0 1899 fd40
00000140: 271c 1b40 f404 2c3f 6887 9a3f 7c2e 27c1
00000150: d50b a740 d6d6 3241 80f5 503d 3033 d53d
00000160: 9c01 6ebf ad01 8941 5aee 483f 6246 d8c0
00000170: 9c30 4ebe a8a7 4cbe 40d8 6e3c 8e1e d13e
00000180: 5811 8640 b2a9 dd40 7172 bbbe 36c1 e43e
00000190: b757 b7be 35a8 9fbe 621e bcbf 695a 8d41
000001a0: aec8 d9be d090 a540 4d23 10c0 d410 8f41
000001b0: 578e da40 a4e5 2b40 28a6 d6bd 79f8 b7be
000001c0: 4217 23bf 4ad6 f6be d63a c43f 7ce6 59c1
000001d0: bf1a 32bf 02a5 943e e081 91c0 613e 7641
000001e0: 4e2d 1640 c14c 1b40 7edb 8840 f487 3e40
000001f0: 0771 9640 fb50 3441 1889 a240 2d65 0d41

bias f4 [64]
-0.5892681 -6.4373956 -0.58254707 -0.6128294 -0.841529 -6.3380237 -0.24732271 1.6602851
0.016327463 -2.7780764 0.89714485 -1.0964789 0.41210285 -0.49418366 -1.12393 0.84920454
-0.51394963 -1.2339454 -1.6563927 -0.59577984 0.19134307 -0.33401984 -0.48450777 -0.314578
-1.4985769 -1.2768551 1.0882999 -0.26480627 -0.8022271 -1.3650807 -0.5436989 -0.5654006
-0.40199745 -0.2162875 1.609607 -0.16928034 -0.29840735 0.5420111 -0.13601246 3.3473573
0.43529943 1.934153 -0.48269692 -0.46739078 -0.41121775 -3.0644636 -0.028191924 -0.3947884
-1.1295757 -0.2359426 -0.22598863 -1.1980379 1.8715373 -0.0036839938 -1.1494495 -0.23865536
-0.38174355 1.460975 -0.2812481 2.3080962 0.91954046 -6.582166 -0.5362802 -1.4493016
00000000: 46da 16bf 25ff cdc0 ce21 15bf 63e2 1cbf
00000010: 726e 57bf 17d1 cac0 2a42 7dbe 3984 d43f
00000020: 2cc1 853c 01cc 31c0 49ab 653f 6c59 8cbf
00000030: 25ff d23e a405 fdbe f0dc 8fbf 7865 593f
00000040: 3492 03bf ecf1 9dbf ad04 d4bf 0785 18bf
00000050: 70ef 433e a604 abbe 6711 f8be 5e10 a1be
00000060: 5ed1 bfbf fd6f a3bf 694d 8b3f b094 87be
00000070: c15e 4dbf f7ba aebf da2f 0bbf 18be 10bf
00000080: 9cd2 cdbe 787a 5dbe 9a07 ce3f d357 2dbe
00000090: d9c8 98be 3dc1 0a3f da46 0bbe 1a3b 5640
000000a0: 91df de3e 5392 f73f 0d24 f7be d84d efbe
000000b0: 228b d2be 2c20 44c0 c0f2 e6bc b521 cabe
000000c0: f095 90bf f09a 71be 9069 67be 4e59 99bf
000000d0: 898e ef3f 296f 71bb 2921 93bf 1262 74be
000000e0: e473 c3be 3b01 bb3f c0ff 8fbe d9b7 1340
000000f0: 0167 6b3f 1ba1 d2c0 a949 09bf b782 b9bf

weight f4 [2, 64]
0.0023394236 -39.75128 -5.209386 0.059767127 -9.244702 -5.7488017 -4.66525 5.9578247
-4.381318 6.0749254 -0.74612385 6.3398995 -1.1515175 -0.014638841 6.0987854 -1.045438
0.09426126 6.505416 7.1831436 0.023097232 -1.5247307 0.00772886 -0.012709945 0.061952114
23.98568 10.904062 -16.300812 0.04501985 -6.1693263 6.9517913 -0.034720823 -12.819664
-4.015371 0.07973485 7.0977144 -1.3804257 -0.0016701818 -2.2349195 -8.634071 -3.3383756
-1.7148128 6.805384 -5.168069 -0.033830076 -15.188315 6.9864655 0.049583867 -0.040754274
5.1630025 -0.05372493 -0.05777286 21.559835 1.2801666 -16.623322 5.1851707 -0.0656009
0.002038166 6.2675033 0.11884774 -11.514752 -1.1059301 -32.956543 -4.463679 4.694918
-0.09588553 -44.97033 -8.886248 0.059643984 -7.626441 -9.9461565 -2.675856 6.6795793
-2.7609901 2.6092336 -1.833144 -1.8864007 -2.3452907 0.110986084 4.289805 -0.9452402
-0.10519259 3.7610536 7.169914 -0.04084958 0.35636997 -0.0065437853 0.019855112 0.0101234615
18.205776 15.565066 -3.721689 -0.055913016 -4.352477 9.663958 0.07323274 -16.880056
-4.387475 0.11750606 9.907278 1.5199507 0.03173776 -0.85478145 -9.824382 -7.8314347
-1.8060215 7.22462 -7.824484 0.073400065 -3.315749 3.8167017 0.045879796 0.06389682
-3.8537314 -0.113541886 0.04353434 13.32033 -3.3178942 -5.8145547 10.96871 0.041314155
0.026374623 7.5991673 -0.035286665 -11.756664 -1.4873366 -19.677639 -7.3330216 8.27626
00000000: 0451 193b 5001 1fc2 4ab3 a6c0 60ce 743d
00000010: 4dea 13c1 2ff6 b7c0 ba49 95c0 80a6 be40
00000020: c233 8cc0 ca65 c240 f901 3fbf 75e0 ca40
00000030: ed64 93bf c0d7 6fbc 4029 c340 ead0 85bf
00000040: 0c0c c13d 5e2c d040 50dc e540 6836 bd3c
00000050: 602a c3bf 6042 fd3b 603d 50bc 80c1 7d3d
00000060: ace2 bf41 0a77 2e41 1068 82c1 bc66 383d
00000070: 1f6b c5c0 1375 de40 6c37 0ebd 581d 4dc1
00000080: eb7d 80c0 064c a33d 7a20 e340 cab1 b0bf
00000090: 00ea daba ec08 0fc0 2825 0ac1 f2a7 55c0
000000a0: fc7e dbbf b5c5 d940 d260 a5c0 6891 0abd
000000b0: 5703 73c1 2091 df40 7418 4b3d f4ed 26bd
000000c0: 5137 a540 ac0e 5cbd 3ca3 6cbd 8b7a ac41
000000d0: 80dc a33f 90fc 84c1 ebec a540 c459 86bd
000000e0: c092 053b 638f c840 7266 f33d 6d3c 38c1
000000f0: 1e8f 8dbf 80d3 03c2 75d6 8ec0 c53c 9640
00000100: a25f c4bd 9ee1 33c2 122e 0ec1 404d 743d
00000110: ce0b f4c0 7523 1fc1 3a41 2bc0 1dbf d540
00000120: 10b4 30c0 affd 2640 76a4 eabf 9475 f1bf
00000130: 3e19 16c0 ac4c e33d 1546 8940 43fb 71bf
00000140: 366f d7bd 1ab5 7040 ef6f e540 e451 27bd
00000150: 2076 b63e 406d d6bb 30a7 a23c e0dc 253c
00000160: 6ea5 9141 830a 7941 2730 6ec0 0c05 65bd
00000170: 7e47 8bc0 929f 1a41 0cfb 953d 5b0a 87c1
00000180: 3266 8cc0 04a7 f03d 3684 1e41 bf8d c23f
00000190: 74ff 013d f5d2 5abf ab30 1dc1 1d9b fac0
000001a0: b62b e7bf 1630 e740 2c62 fac0 c652 963d
000001b0: 3b35 54c0 d744 7440 74ec 3b3d 56dc 823d
000001c0: 89a3 76c0 a688 e8bd 1051 323d 1220 5541
000001d0: 6158 54c0 d510 bac0 d67f 2f41 0839 293d
000001e0: 980f d83c 612c f340 c088 10bd 4c1b 3cc1
000001f0: 0c61 bebf ce6b 9dc1 1da8 eac0 906b 0441

bias f4 [2]
2.9749858 -0.9409869
00000000: 2b66 3e40 84e4 70bf
