src/model/b2d.pt (torch, 11927 bytes, 6 tensors)

weight f4 [64, 2]
00000000: 2cde f9be 5ff0 4540 4356 0dbf db2d 8c3f
00000010: 062e 1dbf b954 c83f a6b9 f6be 8c3a 49be
00000020: 28a5 1f3f 6aa1 8b40 1e64 3cbf be9c 00bf
00000030: b2d5 fbbe ec4c 23bf d54f 6e3f 8d6d 7d40
00000040: dc92 833f 9540 8e40 832b 1ebf e0c8 2640
00000050: 50de 133f cb6f 8d40 504d 0cbd 007c b4bb
00000060: 2975 b73d a105 97c0 f3c0 b03f fd98 fbbe
00000070: 24f3 a9be ea7c 3040 4444 2ebe 471c c1be
00000080: fbe0 ea3e 7908 19be bdd5 57bd b944 2540
00000090: a998 f03e 2d7a 993f 09b7 a33f 760f 473f
000000a0: d0b7 d5bd 40ec 1abc 1346 f4be 8478 be3f
000000b0: 3221 11bf 005e 63be 037b 8d3f 9e10 b3be
000000c0: 3822 a3bd 8db3 91be 4ed0 71be ea12 0140
000000d0: b2a6 f9bc 594b 0640 9fc1 f2bf 43ca b3c0
000000e0: 82a8 24bf c355 643e 553c 19bf 80da ae3d
000000f0: d954 ff3c 0c22 e2bf abad 1abf 7dc6 0040
00000100: 58eb b53e 5f58 1c40 1a0a a0bf c7d0 c0c0
00000110: 32f9 6e3e 02b9 e7bf ba83 efbe 970c d93f
00000120: c2a8 cf3e 4bf7 6d40 6cb4 0ebf aa33 dfbe
00000130: 8c84 55bf ebe4 34bf 1402 2f3f eacc 9e3d
00000140: d20d 4cbf 625e fe3e 0769 8b3f 55d3 8a40
00000150: ff10 98be 43f0 843f ec0c b6be c071 423c
00000160: 5162 823f 235f 573e da2c aa3f 2b09 e33e
00000170: 1f11 9a3e b483 24c0 5e91 b3be db5d d8c0
00000180: ce50 05bf dfdd 28bf 421f 21bf c974 d33f
00000190: fb1d 1bbf be68 23bf b061 413f 4119 8340
000001a0: 0054 36be 7db1 efbe 7c83 88bf a8b1 d9c0
000001b0: c8eb 75be c716 0a40 a381 6e3e 26c8 8240
000001c0: 2839 58be 322b 14bf 8f59 c3be 5423 933f
000001d0: e4cb 97be 50e9 81bd a5d0 2e3f 41ad 6140
000001e0: aead 27bf 617d ddbe c6b8 2fbf 799d a53e
000001f0: 248a 403f 2d2a 9240 2110 30bf 50d1 893e
-0.48802316 3.092796 -0.5520975 1.0951494 -0.6139835 1.5650855 -0.48188514 -0.1965124
0.62361383 4.363454 -0.73590267 -0.5023917 -0.49186474 -0.6378925 0.93090564 3.9598114
1.0279193 4.4453835 -0.61785144 2.6060104 0.57761097 4.4198966 -0.03425342 -0.005507946
0.089578934 -4.719437 1.3808883 -0.49140158 -0.33193314 2.7576241 -0.17018229 -0.37716886
0.4587477 -0.14944638 -0.05269407 2.5823195 0.4699147 1.199041 1.2790233 0.77757967
-0.1043545 -0.00945574 -0.47709712 1.4880528 -0.5669128 -0.22203827 1.1053165 -0.34973615
-0.07965511 -0.284573 -0.23614618 2.0167794 -0.030474994 2.0983489 -1.8965338 -5.61844
-0.6431962 0.2229834 -0.59857684 0.08537769 0.031168388 -1.766664 -0.60421246 2.0121148
0.35531116 2.4428937 -1.2503083 -6.0254855 0.23337248 -1.8103335 -0.46780187 1.6956967
0.4055844 3.7182186 -0.5574405 -0.43594104 -0.83405375 -0.706618 0.68362546 0.07753928
-0.7970859 0.49681383 1.0891427 4.3382974 -0.29700467 1.0385822 -0.35556734 0.01186794
1.0186254 0.21032386 1.3294938 0.44342932 0.30091187 -2.5705385 -0.35071844 -6.761457
-0.52076423 -0.6596355 -0.6293832 1.6520015 -0.6059262 -0.638317 0.75539684 4.0968328
-0.17805481 -0.468151 -1.0665126 -6.8029366 -0.24015725 2.1576402 0.2329164 4.086932
-0.21115553 -0.5787841 -0.38154265 1.1495156 -0.29647744 -0.06343329 0.68287116 3.5261996
-0.6549939 -0.4325972 -0.68641317 0.32346705 0.75210786 4.5676484 -0.6877461 0.26917505

bias f4 [64]
00000000: f85f 633f a5d3 583f 8eb1 7d3f 86f8 60be
00000010: ca1c eabe bd2d 8f3f f44b 38be e03b fbbe
00000020: 9751 35bd 55a8 913f 0a2d a5bd 30a3 2bbe
00000030: d276 bebf 2761 e9bf cd26 ff3b 3471 21be
00000040: 167e 4cbf 0ab0 eb3e 4086 b4bf e6f3 02c0
00000050: 3177 c8be 99d9 743f 4114 13bf 3271 fe3e
00000060: b099 f3bd a053 0a3f 8aff bd3e 372d 1cbf
00000070: 8803 633f f64a 59be 2cfe 62bf c141 493f
00000080: 6fb9 163f 7b95 db3f 1816 1c3f 4360 443f
00000090: de42 04be b51b d7be 4a37 9c3f 296e 91bf
000000a0: 949a 953f d129 1ebe b2b0 483f a02a 01bd
000000b0: ee0c 793f 347e 0ec0 a0eb b2bf 9589 443e
000000c0: 0cd8 1abf 1ff2 3d3f 7348 04be fdf0 e6be
000000d0: 4688 67be a330 b73e 0b40 503f c1d7 e7bd
000000e0: 4ff7 89be fa4b 223f 34a9 11bf bc45 7cbf
000000f0: 9cc3 1abe 54ef 7a3f 6ff6 fdbc e7f1 f1be
0.8881831 0.84697944 0.9909905 -0.21969804 -0.4572509 1.1185833 -0.17997724 -0.49069118
-0.044267263 1.1379496 -0.08065231 -0.1676147 -1.4880011 -1.8232774 0.007786608 -0.1576584
-0.7987989 0.46032745 -1.410347 -2.0461364 -0.39153436 0.9564453 -0.5745278 0.49695736
-0.11894548 0.5403385 0.37109023 -0.6100649 0.88677263 -0.21220002 -0.88669086 0.7861596
0.588767 1.7154993 0.6097121 0.76709384 -0.12916133 -0.42013326 1.2204373 -1.1361743
1.1687799 -0.15445639 0.78394616 -0.03153479 0.97285354 -2.2264528 -1.3978157 0.19193108
-0.6048591 0.7419757 -0.12918262 -0.45105734 -0.22610578 0.35779294 0.8134772 -0.11320449
-0.26946494 0.6339718 -0.5689881 -0.98543906 -0.15113682 0.98021436 -0.031001298 -0.4725487

weight f4 [32, 64]
00000000: dbef 19be d19e 45bb cab1 7abd d46c a93d
00000010: 90d1 f9bd 7027 c7bd 0a43 853d 3cfb 22bd
00000020: f4c2 063d 06fe b5bd e6ff a03d 0ce5 a3bd
00000030: d8dd 01bd ac45 a3bd c7a2 b6bd 1eca babd
00000040: 5a41 e03d feab 6bbc 78dd 8abd 3c1a c13d
00000050: bc80 3abd f15b 083d 1254 b63d 5e66 d73c
00000060: f0f4 213d fbdb b33d 7907 abbc 3050 46bd
00000070: 5344 12be 6044 87bb 0468 37bd 51c2 b6bd
00000080: 7818 a1bc d305 9b3d 3505 0fbe 2509 ee3c
00000090: b827 a6bc 0e28 8cbd e763 7fbd d831 303d
000000a0: b75c 41bd 048a df3d 22a4 34bd 6219 bf3d
000000b0: 84ef f7bd ac13 6f3d 8ce5 123d a339 44bc
000000c0: 900e 9fbc ded0 90bd 74eb 7abd fa0c 91bd
000000d0: 94ed 5f3d 1584 443d 057a 323d 74b5 89bd
000000e0: 2cb2 f8bd 0e8d 9f3d 0a95 d63d 2c5e 5c3d
000000f0: fccb 1fbd c20a 4f3d 4672 e0bd 1855 013d
00000100: 728c a13f 31df 533f c068 833f 00d0 9b3d
00000110: b2ad 81c0 a70d 753f 084c ee3d 2048 83c0
00000120: f947 0740 1167 533f 03dc a23f 48cb c73c
00000130: 5cb0 a2c0 2d7c 72c0 e133 d63e 6841 dabd
00000140: c55d 7d3e d16d 26be 9ebb f63e 1380 5d3f
00000150: c09b c93d 64c2 0a3f e0cf 73bc f8be 23be
00000160: 6c45 123d eb83 633f 689e 6b3f cdcd b640
00000170: 68a6 3d3f f020 95bd bf12 8fbb 027f 283f
00000180: 739e afbe 81a0 77c0 7ed3 0a3e 96ca 713f
00000190: ed23 47c0 00f1 60bb 1fb0 6f3f e72a d0bf
000001a0: 97b1 af3f 444d f53f 331f cc3f 9073 b2bc
000001b0: 4adc f1bd 2a79 d73f 0333 ee3f 91fc 9240
000001c0: d68e d6bd 64f3 a83f 4d37 ccbd 9cd7 90c0
000001d0: 40b3 4c3d 484d c940 ff2b 7a3f 50fd 8ac0
000001e0: a0e4 a23c a632 d33e e0b2 b63d b185 c440
000001f0: 380e efbc 4d89 923f 7657 1d40 78db f93d
00000200: 8d92 a0bd 51a9 113f 3e95 133f 501d a53c
00000210: b2f1 24c1 84f6 123f 40a4 243b dfcb 68c0
00000220: 036e 123f 4f71 153e 7fe1 4940 007d 083c
00000230: 2c28 2840 1f33 29be 8ad8 c53f 9800 c13c
00000240: 2a44 dabd 7836 363f c51f 0d40 05fc 83c0
00000250: 0c46 963d 41c2 e73e 50f8 313d 8b74 203f
00000260: 5e1b 8dbd 74d5 2f3f 5f16 2f3f a7c1 dd3f
00000270: 35d2 073e a8de e93d b686 aebd 9cc6 ee3e
00000280: d605 163f a007 c0be 896b a23e 8a6d 303f
00000290: 4dee c0c0 961d c83d 673e 443f 802c 943a
000002a0: 276d e1be cee5 4cbe 3d7d 743d d0db ef3c
000002b0: 42e3 ef3e 6493 263f a853 3ebf d697 cbbf
000002c0: de04 a2bd e8f3 193f 20fb fd3b f3f7 9ac0
000002d0: 3c4e 08bd df5d a1bf 0721 e83e 16a3 26c1
000002e0: 306b 483d ac1c f5be 5061 babc 0305 c33e
000002f0: a0b9 e53c d585 3a3f 943a cabf aa94 8b3d
00000300: 261a 4bbf 4746 88be ef47 cd3f 463c a53d
00000310: d010 c93f ad98 003d f093 253c 6c8f 44c0
00000320: 2bce 75bf 5a42 08c0 414f c43f 38ec 013d
00000330: 0434 cebf 7e97 a7be d656 6f40 0057 edbd
00000340: a26c 1b3e 026b 9ebf 4a34 9a3f 13b7 67c1
00000350: 5039 be3d db8e 3f40 d06e 183d 7180 3d3f
00000360: f04f 69bd 5fca 893e 7008 1f3e 2c4f 4a40
00000370: 132d 02c0 1499 1b3d f7a3 fd3f 4770 01bf
00000380: aaf8 363f ca71 f33f 3028 033f a209 fbbf
00000390: 084f 0e3f 2cea c0bd beaf 43be 8aea 7a3e
000003a0: fc3c 7ec0 87ef 903e f6af 4bc0 9089 e4bd
000003b0: 9d82 323f 8ab9 59c1 d4b9 893f ffa6 123f
000003c0: e8dc ecbc f3b1 62bf 7e51 82bd 88e8 8ac0
000003d0: 64d7 fd3d bfc4 e93f 1454 3740 9b0b 0dbd
000003e0: 427e a73d 05f0 05c0 f080 2ebc c2f6 f4bf
000003f0: f288 d63d d376 6bbf 272f 54bf f0e9 0c3d
-0.15032904 -0.0030154476 -0.06120471 0.082727104 -0.12198174 -0.09724319 0.06506927 -0.039790377
0.032900766 -0.08886342 0.07861309 -0.080026716 -0.031705707 -0.07972273 -0.08917766 -0.09120582
0.10949965 -0.014384268 -0.06780523 0.09428832 -0.045532927 0.033290807 0.08902754 0.02629393
0.03954023 0.08782192 -0.020877587 -0.048416317 -0.14283876 -0.004128024 -0.04477693 -0.08923782
-0.019664988 0.0756947 -0.1396683 0.029057095 -0.020282611 -0.06843577 -0.062351134 0.043016285
-0.04720756 0.10914996 -0.04410184 0.09331013 -0.12106231 0.05836837 0.035863444 -0.011976632
-0.019416124 -0.07071088 -0.0612597 -0.07082553 0.05466993 0.047977526 0.0435734 -0.067240626
-0.121433586 0.07790576 0.10477646 0.053800747 -0.039012894 0.05054737 -0.10959296 0.031575292
1.2620986 0.8276244 1.0266342 0.07608032 -4.052453 0.95723957 0.116355956 -4.1025543
2.1137679 0.8257914 1.2723392 0.024388924 -5.0840282 -3.788829 0.41836455 -0.106570065
0.24742801 -0.16252829 0.48190016 0.8652355 0.0984416 0.54202867 -0.014881104 -0.15990818
0.035710737 0.88873166 0.92038584 5.712622 0.7408204 -0.07281673 -0.0043662484 0.658188
-0.34300575 -3.8691714 0.1355724 0.94449747 -3.1115677 -0.0034323335 0.93628114 -1.6263093
1.3726071 1.9164205 1.5947021 -0.02178362 -0.11809595 1.6833851 1.8609318 4.593331
-0.104764625 1.3199277 -0.09971485 -4.5263195 0.049975634 6.2906837 0.9772338 -4.343422
0.019884408 0.4124958 0.089208364 6.1413198 -0.029181585 1.1448151 2.4584632 0.122000635
-0.07840452 0.5689898 0.576496 0.020155579 -10.309008 0.57407403 0.0025122315 -3.6374433
0.57199115 0.14594005 3.1543882 0.008330584 2.627452 -0.16523407 1.5456707 0.023559853
-0.106575325 0.7117686 2.205064 -4.124514 0.07337579 0.4526539 0.0434497 0.6267783
-0.068899855 0.6868508 0.6839351 1.7324723 0.13263781 0.114194214 -0.08521788 0.46635902
0.58602655 -0.37505817 0.31722668 0.68917143 -6.0290895 0.09771268 0.7665772 0.0011304766
-0.4402859 -0.20009539 0.05968975 0.02927962 0.4685307 0.6506865 -0.743464 -1.5905712
-0.079110846 0.60137796 0.0077508837 -4.8427672 -0.033277735 -1.2606772 0.45337698 -10.414816
0.048930347 -0.47873437 -0.02275148 0.3808976 0.028042614 0.7286046 -1.5799127 0.06815465
-0.79336774 -0.26616117 1.6037577 0.08068137 1.5708256 0.031395603 0.010106072 -3.0712538
-0.9601771 -2.1290498 1.5336686 0.031719416 -1.6109624 -0.32732767 3.739675 -0.115888596
0.15178159 -1.2376406 1.2047207 -14.482196 0.09288275 2.9930942 0.037215054 0.7402411
-0.056961 0.2691221 0.15530562 3.1610823 -2.034001 0.037987784 1.9815663 -0.50561947
0.7147318 1.9019101 0.51233196 -1.9612315 0.5558934 -0.09419665 -0.19110009 0.24503532
-3.9724722 0.28307745 -3.1826148 -0.111590505 0.6973055 -13.607798 1.0759835 0.57286066
-0.02891393 -0.8855278 -0.063632 -4.340885 0.12394598 1.8263167 2.8645067 -0.034434896
0.08178379 -2.0927746 -0.010650858 -1.9137805 0.10475339 -0.91978186 -0.8288445 0.034402788

bias f4 [32]
00000000: 8c96 e4bd 32f1 34be 7b24 103f a903 673f
00000010: 8993 01be fd71 b8bc cd5e ebbd effd 00bc
00000020: 2ecd 8dbe 49b2 253d 057a 4dbe e3eb 27be
00000030: e640 0dbf 8410 c7be e2e6 e33d f2d2 8bbd
00000040: 74c1 35bf d3cc 063f bf37 eabd c356 94be
00000050: 8775 c23c 00e8 adbb 3582 b7bd 26a9 d8bc
00000060: 60a9 3bbd f865 68bf aaa5 103d b3c3 ba3e
00000070: fd6b e2bd dd40 d2bc d74a 9bbc b054 e3bd
-0.11161527 -0.17670134 0.56305665 0.9023996 -0.12653936 -0.022515291 -0.11492691 -0.0078730425
-0.27695602 0.04045323 -0.20066078 -0.16398577 -0.5517715 -0.38879788 0.11128022 -0.06827344
-0.7099831 0.52656287 -0.11436414 -0.28972444 0.023737682 -0.0053071976 -0.08960382 -0.026447844
-0.045815825 -0.9078059 0.03531424 0.36477432 -0.110557534 -0.025665695 -0.018956585 -0.11100137

weight f4 [2, 32]
00000000: 9800 68bd c5e5 59c0 79b3 1640 9d1a 8d40
00000010: 1302 64bc b0c7 1b3c 7730 0e3e 1c05 d13f
00000020: 2c45 9040 6a45 763a 32d3 d23f aa8e 7140
00000030: 5615 d4bf 7662 4ac0 a72c 353f 0afe d43f
00000040: f6e6 11c0 2cc8 ae40 ee30 913f 03ac ee3f
00000050: f8ec e43d ce31 e03d 13d6 603d 6e7a e03f
00000060: 6cfb 31bd 6ed5 46c1 7f78 5ebc 333f 9240
00000070: 8231 d13f 17bb cd3d 2b5a 8d3b 89b3 b93d
00000080: b6d1 213c adf4 52c0 d42f 2bbe 7440 4640
00000090: 8d01 2d3d 984e 673d 10fc dbbd 9a64 bb3f
000000a0: 8cab 8b40 b4e8 8bbd 3e0e c63f 5043 c53f
000000b0: af57 c3c0 7294 eabf 3867 bb3f 7a01 c83f
000000c0: 91ac 38c0 6c6f db40 fd27 df3f 3684 bf3f
000000d0: 32e3 f1bd c42c 893d e011 adbb fcf0 e63f
000000e0: 7fec 99bd c19f edc0 b810 353d 230f fc3f
000000f0: 47bc df3f edc9 78bd 5ad3 d3bc a9bd 5ebd
-0.05664119 -3.404649 2.3547041 4.4094987 -0.01391651 0.009508058 0.13885675 1.6329684
4.508444 0.0009394499 1.6470702 3.7743325 -1.6569011 -3.1622596 0.7077126 1.6640027
-2.2797217 5.461935 1.1343057 1.8646244 0.11178011 0.109469995 0.054891657 1.7537363
-0.043452665 -12.427107 -0.013578533 4.5702147 1.6343234 0.1004545 0.0043137274 0.09067447
0.009876659 -3.2961838 -0.16717464 3.097684 0.042237807 0.056471437 -0.107414365 1.4640076
4.364691 -0.06831494 1.5473096 1.5411167 -6.1044536 -1.8326552 1.4640875 1.5625451
-2.8855326 6.8573513 1.7434078 1.4962223 -0.11810912 0.066979915 -0.005281672 1.8042293
-0.07515811 -7.425751 0.044205397 1.9692119 1.7479333 -0.060739446 -0.025857616 -0.054380093

bias f4 [2]
00000000: ed06 dc40 97f8 5241
6.8758454 13.185691
