flappybird-ppo/solution/b2d.pt (torch, 3295 bytes, 4 tensors)

weight f4 [64, 2]
2.8826005 0.8639472 2.630507 17.338877 4.000529 -4.9114375 7.6132092 18.611828
8.056435 14.113471 4.398492 0.40249604 1.9477744 -28.97582 -0.6626014 -0.54086155
4.690924 21.290527 -0.47708607 -0.13041306 0.8625089 -23.767683 4.441273 1.0479335
3.780335 -3.4757867 2.973333 19.406044 -5.81616 -17.139107 2.49104 -7.503301
3.534668 12.811282 5.946443 18.46421 4.061255 0.84281546 3.8908205 20.086554
-0.5793193 -0.3197736 -0.06438261 0.38087875 6.986359 22.294067 4.677918 0.53745484
2.6156564 18.151333 3.3620954 -8.008096 -0.24029723 -0.40541518 4.0541544 19.536932
-0.11212909 -0.5380233 2.703812 17.86059 8.099473 3.4484828 -6.2833123 -12.749567
0.17814714 0.18276298 -0.11777729 0.51272124 -1.6367714 16.66706 4.8020434 4.1475344
5.695554 12.062386 -1.4027482 -23.67425 -5.181446 -5.121642 3.2630906 22.567034
0.83818597 22.072395 -0.24462849 0.09759617 6.936776 14.477183 -0.3771289 0.22693616
-0.6217566 -0.38998765 0.106820285 0.21035886 4.8023314 12.777499 6.042038 24.398504
3.65418 2.9579618 -0.41163704 0.40355545 4.116657 22.570953 0.07051706 -0.0020669103
3.244297 20.012854 9.63759 10.375425 6.465131 15.860195 5.138672 19.505093
-0.3933733 -0.22409874 4.1458635 3.6344361 3.6600163 22.204432 -9.353395 5.7922325
7.746535 7.8945465 -0.46202636 -23.401379 6.714637 14.981575 -0.44075882 -0.18304741
00000000: 877c 3840 a52b 5d3f 3a5a 2840 05b6 8a41
00000010: 5504 8040 7f2a 9dc0 699f f340 06e5 9441
00000020: 28e7 0041 c7d0 6141 72c0 8c40 f613 ce3e
00000030: ac50 f93f 7bce e7c1 3fa0 29bf e775 0abf
00000040: 0d1c 9640 0053 aa41 a044 f4be 008b 05be
00000050: 62cd 5c3f 3724 bec1 e91e 8e40 af22 863f
00000060: 02f1 7140 4a73 5ec0 164b 3e40 943f 9b41
00000070: fc1d bac0 e41c 89c1 336d 1f40 0b1b f0c0
00000080: 0038 6240 03fb 4c41 4349 be40 b4b6 9341
00000090: cdf5 8140 c1c2 573f 3403 7940 43b1 a041
000000a0: 454e 14bf 5eb9 a3be 08db 83bd 8a02 c33e
000000b0: 4190 df40 405a b241 81b1 9540 a496 093f
000000c0: ea66 2740 ee35 9141 922c 5740 2921 00c1
000000d0: 7a10 76be 9492 cfbe a2bb 8140 a34b 9c41
000000e0: f0a3 e5bd e5bb 09bf 410b 2d40 7de2 8e41
000000f0: 7197 0141 f1b3 5c40 e510 c9c0 3afe 4bc1
00000100: 346c 363e 3826 3b3e 3835 f1bd b341 033f
00000110: ba81 d1bf 2456 8541 57aa 9940 9ab8 8440
00000120: fa41 b640 88ff 4041 418d b3bf dd64 bdc1
00000130: 68ce a5c0 7ee4 a3c0 7ad6 5040 4989 b441
00000140: 5b93 563f 4494 b041 e47f 7abe 80e0 c73d
00000150: 12fa dd40 8ba2 6741 0a17 c1be f461 683e
00000160: 712b 1fbf 76ac c7be 98c4 da3d 5068 573e
00000170: b3ac 9940 a370 4c41 6058 c140 2330 c341
00000180: 16de 6940 3f4f 3d40 17c2 d2be d29e ce3e
00000190: a7bb 8340 5091 b441 406b 903d 0075 07bb
000001a0: 90a2 4f40 531a a041 9233 1a41 be01 2641
000001b0: 5ae2 ce40 5cc3 7d41 0070 a440 6e0a 9c41
000001c0: 3a68 c9be 247a 65be eaaa 8440 9a9a 6840
000001d0: b53d 6a40 ada2 b141 82a7 15c1 f859 b940
000001e0: 9de3 f740 20a0 fc40 b88e ecbe 0636 bbc1
000001f0: 4ede d640 88b4 6f41 24ab e1be c870 3bbe

bias f4 [64]
-4.80046 -0.110583626 -7.8491244 -2.00855 -1.821076 -7.2986774 -0.14489597 -0.25373396
-1.4138498 -0.694634 1.8679631 -7.3896947 -7.14815 -0.73584044 -0.09170158 2.8660438
-0.780234 -1.2957506 -6.773856 -1.318649 -0.14549285 -0.25114742 -2.1317558 -7.764532
-0.69007295 -8.077379 -0.51266956 2.9947636 -0.29940024 -0.08787634 -0.004422981 -0.7572043
-0.41363886 -0.5936465 -1.9717932 -8.177337 -0.66849405 1.8976446 7.3276796 -1.5069877
-1.322759 -0.69692576 -0.7863055 -0.24629506 -0.10552722 -0.6782905 -0.84680915 -2.1847434
-6.215879 -0.46042126 -1.9570287 -0.2289002 3.8561983 -1.7223393 -1.061491 -1.3575715
-0.43790835 -7.2337756 -1.4843699 7.1723876 -0.19302444 0.5431521 -0.95510685 -0.23380136
00000000: 5e9d 99c0 ab79 e2bd 072c fbc0 158c 00c0
00000010: 0519 e9bf c48e e9c0 9c5f 14be 6be9 81be
00000020: 08f9 b4bf 89d3 31bf 6a19 ef3f 6178 ecc0
00000030: a5bd e4c0 0a60 3cbf 0ace bbbd 436d 3740
00000040: 6abd 47bf 28db a5bf 6ec3 d8c0 7ec9 a8bf
00000050: 14fc 14be 6596 80be b06e 08c0 0c77 f8c0
00000060: 9fa8 30bf f23c 01c1 503e 03bf 35aa 3f40
00000070: fd4a 99be 83f8 b3bd a7ee 90bb 24d8 41bf
00000080: 79c8 d3be 38f9 17bf b863 fcbf 5fd6 02c1
00000090: 6d22 2bbf 05e6 f23f 5a7c ea40 f9e4 c0bf
000000a0: 2b50 a9bf ba69 32bf 514b 49bf c634 7cbe
000000b0: a81e d8bd 72a4 2dbf 7cc8 58bf d6d2 0bc0
000000c0: 7be8 c6c0 56bc ebbe eb7f fabf d064 6abe
000000d0: f4cb 7640 9d75 dcbf f0de 87bf e7c4 adbf
000000e0: 8635 e0be 177b e7c0 d5ff bdbf 3384 e540
000000f0: 33a8 45be 040c 0b3f e281 74bf a069 6fbe

weight f4 [2, 64]
-29.073275 -8.995927 -10.716672 15.057072 11.410352 -21.076052 -15.49367 0.03688386
-12.57813 0.058768317 9.60355 -33.23694 2.9684784 -24.908144 6.7259073 -4.5096707
-8.092262 -10.722239 -10.388763 -14.873554 -0.07257581 0.0641194 16.249102 -18.386013
29.56156 -12.000196 -0.09096794 11.760689 -0.028274313 8.093544 -6.0644855 -12.478694
0.064304546 -0.039461777 15.64356 -24.473745 -7.0841584 13.915952 -8.670823 -17.464315
-19.95445 0.08733152 -4.610107 -0.029612109 -0.1232321 0.019759774 -8.66918 19.232006
-16.847233 0.015053302 26.745665 -0.07188156 11.4439535 10.88569 -8.67513 -11.1485615
-0.051639855 7.6574254 -13.512168 -10.144704 -7.828569 5.0992017 -7.400361 -0.08455378
-51.10946 -3.8873677 -9.411985 11.241442 9.732241 -8.090457 -13.673356 -0.06246975
-1.4175729 -0.09047584 14.857968 -41.146763 5.3563766 -15.538415 21.667103 2.9378119
-10.593006 0.15726927 -12.656964 -4.227571 0.06342894 -0.06372392 11.180213 -31.821774
6.9462814 -8.160238 -0.011486024 8.739799 0.10641444 -11.068394 -6.678895 -8.469631
-0.090857774 -0.016186118 9.423543 -15.338999 -9.67033 10.917635 -9.556586 -2.5073025
-7.9454093 -0.088859454 -12.819066 -0.0801311 0.040740266 -0.10621366 -5.7074203 8.98354
-22.63221 -0.008156344 6.9641933 -0.08149816 9.891584 13.3863945 -5.627432 -0.9064024
-0.062750936 8.497921 -1.6632539 -10.0929365 -6.3474565 -7.7445827 -9.360259 0.084506065
00000000: 1196 e8c1 51ef 0fc1 7d77 2bc1 c4e9 7041
00000010: cd90 3641 c19b a8c1 13e6 77c1 8813 173d
00000020: 0540 49c1 0cb7 703d 24a8 1941 a0f2 04c2
00000030: 8dfb 3d40 e143 c7c1 a23a d740 394f 90c0
00000040: e879 01c1 4a8e 2bc1 6038 26c1 14fa 6dc1
00000050: a0a2 94bd 0851 833d 29fe 8141 8e16 93c1
00000060: 137e ec41 ce00 40c1 664d babd c82b 3c41
00000070: 889f e7bc 287f 0141 4410 c2c0 bba8 47c1
00000080: 1ab2 833d aca2 21bd 064c 7a41 3bca c3c1
00000090: 6db1 e2c0 bda7 5e41 b1bb 0ac1 ebb6 8bc1
000000a0: b7a2 9fc1 deda b23d ff85 93c0 1895 f2bc
000000b0: 1c61 fcbd 40df a13c f6b4 0ac1 26db 9941
000000c0: 22c7 86c1 20a2 763c 1ff7 d541 a436 93bd
000000d0: 6f1a 3741 c92b 2e41 55cd 0ac1 8260 32c1
000000e0: 5084 53bd a109 f540 d731 58c1 b550 22c1
000000f0: a383 fac0 a92c a340 c2cf ecc0 882a adbd
00000100: 1670 4cc2 a2ca 78c0 7e97 16c1 f2dc 3341
00000110: 42b7 1b41 8372 01c1 11c6 5ac1 48e0 7fbd
00000120: 0773 b5bf 664b b9bd 3dba 6d41 4996 24c2
00000130: 7067 ab40 599d 78c1 3a56 ad41 1c05 3c40
00000140: f47c 29c1 320b 213e ed82 4ac1 4348 87c0
00000150: 08e7 813d b081 82bd 27e2 3241 fe92 fec1
00000160: f047 de40 5690 02c1 e02f 3cbc 37d6 0b41
00000170: d0ef d93d 2418 31c1 82b9 d5c0 9c83 07c1
00000180: a413 babd c098 84bc d5c6 1641 8a6c 75c1
00000190: acb9 1ac1 a2ae 2e41 c7e7 18c1 a577 20c0
000001a0: cb40 fec0 f2fb b5bd e51a 4dc1 c61b a4bd
000001b0: 44df 263d 8c86 d9bd 30a3 b6c0 94bc 0f41
000001c0: c40e b5c1 30a2 05bc acda de40 82e8 a6bd
000001d0: ee43 1e41 ac2e 5641 ec13 b4c0 fd09 68bf
000001e0: 9083 80bd 7cf7 0741 81e5 d4bf ab7c 21c1
000001f0: 5d1e cbc0 9fd3 f7c0 9fc3 15c1 8411 ad3d

bias f4 [2]
8.304783 9.018824
00000000: 64e0 0441 1a4d 1041
