flappybird-ppo/solution/PPO_FlappyBird-v0-eps0.25.pth (torch, 39361 bytes, 11 tensors)

action_layer.0.weight f4 [64, 2]
000000 4c c5 f6 3e bf a3 0f 3f 4c 0d 0b be 56 e2 2a 3f
       0.481974 0.5610923 -0.13579291 0.6675161
000010 9d 9d 28 be 9f fa 0a 3e 26 ea 98 be d7 5e d6 3e
       -0.16466375 0.13572167 -0.2986614 0.41869232
000020 ee a3 1c 3f 80 c7 03 bf 38 ad 11 3f 93 b0 ec 3d
       0.61187637 -0.5147629 0.56904936 0.11557116
000030 97 5c f3 3e da 06 a2 3d bf 94 84 3e 27 5a f0 bd
       0.47531578 0.07911463 0.25894734 -0.11735945
000040 0b db 03 3f 33 21 d4 3d 09 35 99 be 5e d7 5a 3e
       0.5150611 0.10357895 -0.29923275 0.21371219
000050 6e fd 9c be 8d 92 9d bd 8d 23 46 be ee 68 07 3f
       -0.30662102 -0.07693968 -0.19349499 0.52894485
000060 88 b8 0a bf 64 75 a5 be 3a 62 db bd 16 d8 9f be
       -0.5418782 -0.32316124 -0.107120946 -0.31219548
000070 3b cb 89 bb 6b 46 43 bf 09 09 1f 3f b2 c6 19 bf
       -0.004205135 -0.76279324 0.6212316 -0.6006881
000080 aa c1 03 3f 66 b4 de 3d d7 a3 48 be 2e 57 e4 3e
       0.5146738 0.10874252 -0.1959375 0.44597763
000090 b4 a6 20 3d b4 10 f0 3e d4 54 a9 3b 8b d6 89 be
       0.03922148 0.46887743 0.005167583 -0.26921496
0000a0 ac 05 0f 3e 5b 0c 7c be 23 64 a1 3e a0 c9 28 3f
       0.13967007 -0.24614088 0.3152171 0.65932655
0000b0 5e 43 c9 3e 9f 28 a0 be 06 1f 9e 3e ee 3e 6d 3d
       0.3930921 -0.3128099 0.30883044 0.057921343
0000c0 77 2c 9c 3e 3f de f2 be 69 cd 2d bf c1 12 7d be
       0.30502674 -0.47435185 -0.67891556 -0.24714185
0000d0 e4 f9 0a bf 7a 67 11 3f 59 37 77 3e 43 1c b2 3e
       -0.5428755 0.5679852 0.24142207 0.34787187
0000e0 1d 7b 24 3e 54 c2 8b bd 59 78 00 3f 43 06 0a bf
       0.16062589 -0.068241745 0.50183636 -0.53915805
0000f0 bf c3 99 bc 98 e4 0c bf 84 45 6c 3e c9 8a 74 be
       -0.018770097 -0.55036306 0.23073393 -0.23881067
000100 16 d7 38 3e 9a 6b 2a be 5e 17 0a 3f 8b 1d e0 be
       0.18050799 -0.16642609 0.53941905 -0.4377254
000110 25 d2 ab be 16 c5 ce be 1e c4 13 3f 5c 1d 65 3e
       -0.33558765 -0.4038474 0.57721126 0.22374481
000120 c6 72 24 3f 01 d1 1a bf 4b 72 2a bf 8f f6 09 bf
       0.6423763 -0.60475165 -0.6658065 -0.53891844
000130 2c f4 bf be 26 fe b8 3e 3f d0 71 3e 78 c9 10 3f
       -0.37490976 0.361314 0.23614596 0.56557417
000140 76 5c b4 be 9f d1 f3 be 3d 9f 8d 3e 76 85 80 be
       -0.35226792 -0.47620866 0.27660552 -0.25101823
000150 ef 3f ad 3e 58 9b 39 be 5b 9b b4 3e 87 28 14 bf
       0.3383784 -0.18125665 0.35274777 -0.5787434
000160 75 f1 a4 be 2d 62 5e 3e cd a3 d5 3d 1f d3 27 be
       -0.32215467 0.21717139 0.10431633 -0.1638913
000170 72 cc c2 3e 83 2e ef 3e 7f 72 f7 be 56 07 b0 be
       0.38046604 0.46715173 -0.4832954 -0.34380597
000180 a4 7f 18 3f 8e 18 80 be ea 4e 5d be ae 18 27 bf
       0.59569764 -0.25018734 -0.21612135 -0.65272033
000190 80 5f ce be e7 0e 29 3e de ee 74 bd e4 39 fe be
       -0.40307236 0.16509591 -0.059798114 -0.49653542
0001a0 5b a8 15 bd 1e c0 00 bf 09 d6 0e bf a1 43 bf be
       -0.03653751 -0.5029315 -0.5579534 -0.37356284
0001b0 7d ac 0d bf 15 1e d8 be 32 12 24 3f e1 90 5b 3d
       -0.5534132 -0.4221045 0.64090264 0.053604964
0001c0 7d 7b 08 3e 3a 9b 2e bf 9c e3 da be 32 11 64 be
       0.13328357 -0.68205607 -0.42751777 -0.22272184
0001d0 b6 01 0e 3d f8 69 2a bf b9 ef 95 be ab bb d5 be
       0.0346696 -0.66567945 -0.29284456 -0.41744742
0001e0 31 1b 80 3c 6d 7a 83 be ca b5 22 bd b5 16 ee be
       0.015637966 -0.2567934 -0.03972415 -0.465017
0001f0 5a 43 ed be 31 37 d0 be 68 6a 63 be f5 50 0d bf
       -0.46340448 -0.40667108 -0.2220856 -0.55201656

action_layer.0.bias f4 [64]
000000 27 53 0e 3f 61 ca e6 bd 34 e5 17 3f 88 eb 80 3e
       0.5559563 -0.112690695 0.5933411 0.25179696
000010 00 14 1d bf 1b a4 eb 3e 1e b0 60 be 90 c0 a4 be
       -0.6135864 0.4602364 -0.21942183 -0.32178164
000020 ee 30 1d bf ae ad 2d bf b9 b3 64 3e ab dc a4 bd
       -0.61402786 -0.6784314 0.22334184 -0.080499016
000030 b7 c5 96 3e 9c d1 f9 be c3 f4 ed 3e 1d 32 09 bf
       0.2944772 -0.48792732 0.464758 -0.5359209
000040 f4 c0 10 be 48 2a 25 3e 36 9a 90 3e 3b cc 04 3f
       -0.14136106 0.1612941 0.28242654 0.5187413
000050 b3 dc 19 3f 8c 6f 0d bf 77 30 29 3e a9 0b c8 be
       0.60102385 -0.5524833 0.16522394 -0.39071396
000060 8d 49 e9 bd 17 cd 03 bf 13 3d 26 3f 3e cf f7 be
       -0.11390982 -0.5148482 0.6493694 -0.484003
000070 3e f1 a6 3e cd 78 56 3e 01 dc 33 3e 0e 19 c0 be
       0.32605928 0.2094452 0.17564394 -0.37519115
000080 27 df 1c 3f 6e a7 ff 3d 1d 92 1f 3e e7 1c 2a bf
       0.61278003 0.124831066 0.15583082 -0.6645035
000090 84 d1 8a 3e 3e 55 a8 bd 42 c8 75 be 62 9f 19 3f
       0.27112973 -0.08219384 -0.24002174 0.60008824
0000a0 f8 ac 33 3e 1a 9a e3 be 88 60 d1 be d4 11 9a bd
       0.17546451 -0.44453508 -0.4089396 -0.07522932
0000b0 dc 06 d1 3e f7 c6 49 be 47 51 e0 be 06 0d 60 be
       0.40825546 -0.19704805 -0.4381201 -0.21879968
0000c0 52 16 11 bf 4e 43 8e 3e 53 fd 0c 3f cf 93 22 bf
       -0.56674683 0.27785724 0.5507404 -0.6350679
0000d0 32 57 0b 3e 91 b8 ca 3e 98 0a 28 3e 28 22 a3 be
       0.13607481 0.39593938 0.16410291 -0.31861997
0000e0 9d fb a5 3e 04 66 ce 3e 08 5b 57 3e 2d 4e dd bd
       0.32418528 0.40312207 0.2103082 -0.108059265
0000f0 f7 2c 2d be 61 2c c5 3d 10 88 d5 bd 4a 29 3f be
       -0.16911684 0.09627605 -0.104263425 -0.18668094

action_layer.2.weight f4 [64, 64]
000000 3a fd a7 3d 4b c6 91 3d 7c 98 e3 bb 72 79 66 bd
       0.08202596 0.071178995 -0.006945668 -0.056268163
000010 7c 2b 96 3c 12 68 aa bb 40 8b ec 3c 3d bf 28 3d
       0.018331282 -0.0052003944 0.028874993 0.041198004
000020 56 89 d6 bd b0 70 46 bd c1 7d cc 3d 34 59 21 3d
       -0.104754135 -0.04844731 0.09984923 0.03939171
000030 57 47 67 bb 20 8d 9b bd 51 76 8b bd 91 69 bb bd
       -0.0035290325 -0.07595277 -0.068096764 -0.091509946
000040 45 a1 2b bd a9 04 e0 3c e7 e6 9e 3d ce b1 79 3d
       -0.041901845 0.027345972 0.07758885 0.060960583
000050 7e 93 de bd e4 21 f1 bd 4e 0b 7c bc 73 a8 eb 3d
       -0.10867976 -0.11774042 -0.015383555 0.115067385
000060 c8 cb 0f 3d 3d 8d 0c bd 65 04 1d 3d 73 64 73 bd
       0.03510645 -0.034314383 0.03833427 -0.059421968
000070 87 83 ab bd bf ab bf 3d 69 36 19 bd c7 a7 c5 bc
       -0.08374696 0.0935893 -0.037405405 -0.024127854
000080 41 e2 f7 bd 97 54 b2 3d 2f aa cb 3d e8 7a 55 3d
       -0.121037014 0.087075405 0.09944569 0.052119166
000090 6d 23 ae bd c7 f1 fd bd 4b d4 ce bd 4b d5 c1 3d
       -0.08502851 -0.12399631 -0.100990854 0.094645105
0000a0 74 41 8b 3d 06 4a e5 3d 12 3c 86 3d 39 ae 5d 3d
       0.067995936 0.111957595 0.06554426 0.05412123
0000b0 5c b9 9d bb c7 a1 aa bd 9e 9f f2 bd be 9b ef bd
       -0.0048133563 -0.08331638 -0.11846851 -0.11699627
0000c0 6e 60 8d 3d db 39 35 bd 83 9f 04 bd 08 c7 98 bd
       0.06903158 -0.04424463 -0.032378685 -0.07459837
0000d0 c0 05 83 3c e3 f3 ab bd 28 04 9b bd 40 71 1c 3d
       0.015993953 -0.08396127 -0.07569152 0.03819394
0000e0 f4 b9 d1 bc 0c 16 9e 3d 53 ea 9b bc 6d 9a ba bd
       -0.025601365 0.07719049 -0.019032633 -0.09111486
0000f0 86 8e c3 bc 9f bc 52 bd d4 95 1e bd f0 4e f5 bd
       -0.023871671 -0.051449414 -0.038717106 -0.11977947
000100 9b 5c 91 3d fc 47 84 bd b3 59 7c 3d 7b 37 95 3d
       0.07097741 -0.064590424 0.06160898 0.07285973
000110 22 3c a7 3d b9 3f c1 bd 08 a2 ca 3d 92 d8 70 bd
       0.08165766 -0.09435982 0.09894186 -0.058800288
000120 ca 76 36 3d 9a 56 ec 3d f6 e0 a8 bc 64 c3 d1 ba
       0.04454688 0.115399554 -0.020615082 -0.0016003666
000130 15 72 1e bd 86 57 d9 bd 6c 7c 7d 3d 94 c5 08 be
       -0.038683016 -0.10612397 0.061886236 -0.1335662
000140 f0 f0 b0 3d 67 c0 cb 3d 82 d9 f9 3d 2d dc e6 bc
       0.08639705 0.09948807 0.121996894 -0.02818116
000150 6e 00 cd bd 5e 4d 56 3d ce e6 97 3d 7c 97 e9 bd
       -0.100098476 0.052319877 0.074170694 -0.114058465
000160 1b 3e 0a bd a0 6f 9c bd 9d c6 53 bb e9 bf 64 bd
       -0.033750635 -0.07638478 -0.0032314428 -0.055847082
000170 d1 c7 42 bd 5e 8f 08 bd d1 64 01 be 8b d8 cf 3d
       -0.04755384 -0.03333985 -0.12636115 0.10148724
000180 48 17 d9 3d 09 1b 64 bc 75 88 9a bc 1d a8 4e bd
       0.10600144 -0.013922461 -0.018863896 -0.050453294
000190 7c 5a da bd 9a 1e ff bd 16 77 1f 3d 73 15 89 bd
       -0.1066179 -0.12457009 0.03893193 -0.06693544
0001a0 66 0e b3 bd 6e 38 62 bc f1 27 16 bd a1 c2 51 bd
       -0.08742981 -0.013807399 -0.036659185 -0.051211003
0001b0 e5 bc 7b 3b 28 6f 09 bd 64 6f eb bc bd c5 81 bd
       0.003841215 -0.033553272 -0.028739639 -0.06336544
0001c0 81 fa de bd 03 14 ba 3d 8d 80 3a bd 10 56 04 3d
       -0.108876236 0.09085848 -0.04553275 0.032308638
0001d0 e5 04 8b bd a7 96 26 ba 99 91 e0 3d f5 84 8b 3d
       -0.06788043 -0.00063548464 0.109652705 0.06812469
0001e0 33 6a df bd 09 83 2f 3d e2 b5 df 3d 4e e4 f3 3c
       -0.10908928 0.042849574 0.10923363 0.02977195
0001f0 2f 32 aa 3d 1c b6 f1 3d 1b 18 b9 bc 18 ef c5 3c
       0.08310353 0.11802313 -0.022594502 0.02416186
000200 52 70 b4 bd 96 b1 71 3b b2 10 b3 3d 8c 81 b7 3d
       -0.08810486 0.003687953 0.08743419 0.08960256
000210 2f c4 c0 bd 11 ee cf bd dd ca a9 bd 24 1e 00 be
       -0.09412419 -0.101528294 -0.08290646 -0.12511498
000220 16 3c d4 bd 1b 82 f3 bc 74 42 b3 3d 7a e1 df 3c
       -0.10363023 -0.029725125 0.08752909 0.027329195
000230 60 2c ca bd fc ec cd bd cf f7 65 3d 8f 83 e3 bd
       -0.09871745 -0.10054967 0.05614453 -0.11109077
000240 b9 c5 55 bc 5f d4 94 3d 77 17 61 bd e2 2e 41 bc
       -0.013047629 0.07267069 -0.05495402 -0.011790963
000250 fb bf f4 bb 44 40 2b 3c b4 56 87 bd f3 05 d2 bd
       -0.007469175 0.010452334 -0.06608334 -0.10255041
000260 ac 9d e6 bd e2 ff 86 bd 68 f2 08 3e 87 0b 4a bd
       -0.11260542 -0.065917745 0.1337372 -0.0493274
000270 d9 a1 a3 bd ac 7d f1 3c 7b ee a5 3c e9 e6 8a 3d
       -0.07989854 0.02947887 0.020255318 0.06782324
000280 18 2b c6 3d e2 c4 8a 3d 35 91 04 be 33 48 ee 3b
       0.09676188 0.06775834 -0.12946017 0.0072717904
000290 0a 99 99 3d 44 ec 40 bc 05 99 9a bd 09 c0 f2 3d
       0.07499893 -0.01177508 -0.075487174 0.11853034
0002a0 74 03 63 bd 83 4f 9b bd 8d 05 de bd 88 2c 3d bc
       -0.055423215 -0.07583525 -0.108409025 -0.011546262
0002b0 ae bf 6b 3d 67 bf 7d 3c c0 b9 14 3d 16 f2 c3 bd
       0.057555847 0.015487528 0.036309958 -0.095676586
0002c0 3b 32 06 be 7b a6 73 bc 45 2b f8 3d e8 e4 97 3d
       -0.13105099 -0.014871235 0.12117628 0.07416707
0002d0 d9 42 d3 bd 30 15 ad bc f1 c1 ca bd c0 c2 64 bd
       -0.103154846 -0.021128267 -0.09900273 -0.05584979
0002e0 b9 3b 5b 3c 55 07 87 3d 42 92 b1 3d 82 f3 ed bd
       0.013380938 0.06593195 0.086704746 -0.11618711
0002f0 65 75 ae 3d 08 dc c4 bd d0 b2 2d 3d cd 14 d9 3d
       0.08518485 -0.0961228 0.042406857 0.105996706
000300 74 d8 aa 3b 2c aa b7 3d 55 8e cf bd ff 5a 76 bd
       0.0052137915 0.089680046 -0.101345696 -0.060145374
000310 f2 86 9d 3d e8 4b c8 bc 5a 17 eb bc 25 a6 40 bd
       0.076917544 -0.024450257 -0.028697658 -0.047033448
000320 00 ab b5 3d 15 e9 71 3d fa ae 1a 3d d7 09 96 bd
       0.08870506 0.059060175 0.037764527 -0.073260956
000330 50 d9 c6 bd c0 41 2c 3c da b6 1b 3d 9e 5e 53 bd
       -0.09709418 0.010513723 0.038016178 -0.051603906
000340 ab 84 1d bd 4d 77 a5 3d 1d 72 3d 3c 58 5a 02 3c
       -0.0384566 0.080793954 0.011562851 0.00795611
000350 5f 3f ee bc fe f8 07 be f0 aa f2 bd 98 b8 80 bd
       -0.029082952 -0.13278577 -0.1184901 -0.062852085
000360 e9 99 59 bd e5 e3 12 3d 99 81 1f bd bc 1b 68 bd
       -0.053125296 0.03586187 -0.038941953 -0.056667075
000370 0c a8 f5 3d 5d ed 2a 3d 60 fd ca 3d 4f c4 7e bd
       0.11994943 0.041730274 0.09911609 -0.062198933
000380 0e 3c 46 bd e7 03 37 3d a2 79 a9 bd 75 43 9e bd
       -0.048397116 0.044681456 -0.08275153 -0.0772771
000390 39 b0 00 bc cf 80 42 bd 46 b7 b9 bd ac 57 9e 3d
       -0.007854515 -0.047486123 -0.0906816 0.07731566
0003a0 99 40 d1 3d 6c 10 b6 3c 1b 78 c0 bc 31 fe ce bd
       0.10217399 0.022224627 -0.02349477 -0.10107077
0003b0 5c f2 33 bd 65 b3 0c 3d 16 4e 50 3d e8 f9 8b bc
       -0.043932304 0.03435077 0.05085572 -0.017086938
0003c0 86 52 2a bd df 0d 9b 3d 0f b8 cc bd b3 e5 99 3d
       -0.041582607 0.07571005 -0.09996044 0.07514515
0003d0 4a 69 c8 bc 05 e5 dd 3b 80 a5 c0 bc ec d5 2f 3c
       -0.024464268 0.006771686 -0.023516417 0.010732155
0003e0 c9 05 0e bd 01 38 ba 3d 4d 12 06 3c 7c 79 c4 3d
       -0.034673486 0.09092713 0.008183074 0.09593484
0003f0 1a 9a ee 3d 1c 5c 74 bd 30 10 bd bd 86 58 c7 3d
       0.11650486 -0.059658155 -0.09231603 0.097336814

action_layer.2.bias f4 [64]
000000 32 85 09 3d 5b 0a 6d 3d ec fa 30 bd 63 64 b0 3d
       0.03357429 0.057871204 -0.043208048 0.08612897
000010 25 78 20 3c 8c 12 03 bd e0 a8 03 3d 71 c9 c3 bd
       0.00979427 -0.03200011 0.032143474 -0.09559906
000020 06 f5 c9 3b ea bb 74 3d e1 c3 d2 bd 6e 5c 90 bd
       0.0061632423 0.05974952 -0.10291267 -0.070488796
000030 75 b4 95 3d a3 16 b9 b9 64 12 b1 bb 49 c8 99 3c
       0.0730981 -0.00035302815 -0.0054038037 0.018772261
000040 f8 3d 73 bd e4 b2 e8 3d 31 6b 19 b9 f2 bd 08 bd
       -0.05938527 0.11362246 -0.00014631149 -0.03338427
000050 6e d9 8d 3d 0c 88 dc bd a2 d8 bd bc c0 ce f3 3c
       0.06926237 -0.107681364 -0.023174588 0.029761672
000060 2a 12 38 bd f7 16 94 3d ec ce ae bd 27 48 eb bc
       -0.044939198 0.07230943 -0.08535561 -0.028720928
000070 3a 73 3b bd 4c b8 f2 3d bf 3b 72 3d be 8d f8 bd
       -0.045764185 0.11851558 0.05913901 -0.1213641
000080 0f 4c 2e 3d a4 48 80 3b 8a 14 e5 3d 30 e3 7b 3d
       0.042553004 0.0039149094 0.11185558 0.06149596
000090 da 3b ac bd 91 c7 dc 3d f5 84 3b bc c4 49 e4 bc
       -0.08409853 0.10780252 -0.011445274 -0.027867205
0000a0 c6 22 04 3d 6e 08 05 3e fc 8d 15 3d 48 9e 07 be
       0.032259725 0.12991497 0.03651236 -0.13243973
0000b0 0d 31 1e bd 37 88 df 3d e1 93 66 bd 40 2f a3 bd
       -0.038620997 0.10914653 -0.056293372 -0.079679966
0000c0 3d e5 05 be 81 9e 6a bd c8 93 93 bd 1d df 94 3c
       -0.13075729 -0.057280067 -0.072059214 0.018172795
0000d0 35 55 5e 3d 65 21 01 3e 95 26 b0 3d 5e d3 00 bc
       0.05428048 0.12610395 0.08601109 -0.007862894
0000e0 bb 23 74 3d a7 15 8e 3d 10 74 cb bd d5 0f 38 3d
       0.059604388 0.069377236 -0.099342465 0.044936974
0000f0 e9 92 b5 bd c9 4d cf 3d 3c 8c 81 bd b3 80 01 3d
       -0.088659115 0.10122258 -0.06325576 0.031616878

action_layer.4.weight f4 [2, 64]
000000 74 60 91 3c 5d 50 e4 bc ed 68 a2 bc e3 62 45 bd
       0.017746188 -0.027870351 -0.019825423 -0.04819001
000010 46 f2 66 bc 34 06 62 bc 53 8f b7 bd f4 c9 12 3c
       -0.014095848 -0.013795424 -0.08962884 0.008959282
000020 17 d3 55 bd 5f 22 5d bd da e3 42 bc ad 69 1e bd
       -0.052203264 -0.053987857 -0.011895144 -0.038675
000030 24 af 44 bd a9 12 59 bd 70 ba 04 bd 82 e2 35 3d
       -0.04801859 -0.05299631 -0.032404363 0.044405468
000040 47 5d 8e bd bf 29 55 bd 6d c0 c0 bd 61 50 4e bc
       -0.06951385 -0.052041765 -0.09411702 -0.012592406
000050 3a 3a ac bd 5e fa fa bc eb e7 28 bb ee 10 98 3d
       -0.08409543 -0.030636963 -0.0025773 0.07425104
000060 92 95 e6 3c 66 48 bc bc 8e 4e 33 bd 49 67 73 bd
       0.028147493 -0.022983741 -0.043776087 -0.059424672
000070 f9 84 2a 3d d2 b5 4f 3c d2 d1 29 bd fe dc db 3d
       0.04163072 0.012677627 -0.041459866 0.1073551
000080 ec 11 aa 3c 23 70 fa bd 8d c6 63 bd 30 99 f7 bb
       0.020760499 -0.1222842 -0.055609275 -0.007556103
000090 67 f8 78 bd ff 80 03 3d 9b be 3d bd a8 dc b4 bd
       -0.06078377 0.032105442 -0.046324354 -0.08831149
0000a0 ae 47 3a 3d 89 a5 83 bd d5 fc 8f 3c c1 0e aa 3d
       0.045478515 -0.06428058 0.017576614 0.08303595
0000b0 4c 63 a4 3c 6d bc 9f 3d 62 1b d0 bc b6 4f ca 3c
       0.02006688 0.07799611 -0.025403682 0.024696212
0000c0 c1 eb 90 bd 73 9e 01 bb c2 23 70 bd e6 77 c3 3c
       -0.070762165 -0.001977828 -0.05862785 0.023860883
0000d0 e8 48 90 bc 3e 5a 36 3c d2 ee 5a 3d e7 a5 93 3d
       -0.01761289 0.011129914 0.053450413 0.07209378
0000e0 18 d9 e2 bc 92 bc 74 3d 62 12 97 bd 9b d4 c9 bc
       -0.027691409 0.059750147 -0.07376553 -0.024637511
0000f0 e4 51 1d bc f8 a8 5f bd 9f bf 9c 3c 25 71 89 bd
       -0.009602044 -0.0546045 0.01913434 -0.06711034
000100 70 1e 6d 3d 24 d4 00 bd d4 39 3e bd 09 d6 50 bd
       0.057890356 -0.031452313 -0.046441868 -0.05098537
000110 d4 44 68 bd 43 23 00 bd ec 03 b1 bd 67 3a 2b 3c
       -0.056706265 -0.03128363 -0.08643326 0.010450936
000120 8c 08 b4 bb b7 58 3f bd f2 7b 13 bc c8 92 79 bd
       -0.005494183 -0.046715464 -0.009001719 -0.060930997
000130 2b 3e 91 bd a7 b3 89 bd 8c 7f 33 bc 42 06 36 3d
       -0.07091936 -0.06723719 -0.0109557025 0.04443956
000140 e0 ba 3f bd 67 32 72 bc 83 36 b2 bd 67 00 31 bc
       -0.046809077 -0.014782525 -0.087018035 -0.010803319
000150 b0 55 57 bd c6 9c 05 bd 10 8b 67 bc 12 bb a2 3d
       -0.052571952 -0.032620214 -0.014132276 0.07945837
000160 ae 7e 01 bd a4 b6 55 3a 46 07 2e bd e9 fa 25 bd
       -0.03161495 0.0008152521 -0.042487405 -0.04052249
000170 ea 0c 38 3d b1 d1 38 bc ea 48 aa 3d 38 94 38 3d
       0.04493419 -0.011280463 0.083146885 0.045063227
000180 22 f0 4c bd e6 a8 88 bd a3 ae 99 bd 02 49 cc bb
       -0.050033696 -0.0667284 -0.075040124 -0.006234289
000190 c8 ec 60 bd a8 c8 89 bd 75 80 41 bd 94 08 fa bd
       -0.054913312 -0.06727725 -0.047241647 -0.122086674
0001a0 90 03 73 bd ea fc 7b 3d 1e a8 18 3c bb 67 9b 3d
       -0.05932957 0.061520495 0.009317426 0.075881444
0001b0 da fd f3 3c d5 34 02 bc bc de 43 bd ac 64 9f 3c
       0.029784132 -0.007947166 -0.047819838 0.019457184
0001c0 c2 d3 03 be ad b5 83 bb e4 42 77 bd f6 83 00 3d
       -0.12873748 -0.00401946 -0.060366526 0.031375848
0001d0 69 ab 4d 3d 1d 81 17 3d a0 87 d1 3d ee 75 82 bd
       0.050212298 0.036988366 0.102309465 -0.063701496
0001e0 e1 9d 35 bc 04 3d ba bc da 66 6e bd 2b d8 77 bd
       -0.011085005 -0.022734173 -0.058203556 -0.06050889
0001f0 76 15 65 bc 66 9c 0b bd 02 cd d8 bb 89 c6 6c 3a
       -0.0139821675 -0.0340847 -0.0066162357 0.00090322696

action_layer.4.bias f4 [2]
000000 3f 65 e0 bc 7a 5c e3 bd
       -0.027392028 -0.11101623

value_layer.0.weight f4 [64, 2]
000000 b5 8e 12 3f b0 31 f9 3e ec 77 05 bf b5 36 cd 3d
       0.57249004 0.4867072 -0.5213611 0.100202
000010 ab a9 ff 3e 3b fe 27 bf 8b bc 29 bf 25 fe b8 3e
       0.49934134 -0.656223 -0.6630332 0.36131397
000020 13 c7 2a bd 18 3a 6f 3e 35 a4 8c be 30 30 8a 3d
       -0.04169376 0.23362005 -0.2746903 0.06747472
000030 94 68 03 3f a3 a4 25 be 2f 46 4e be 37 a7 34 bf
       0.5133145 -0.16176085 -0.2014396 -0.7056765
000040 85 6d 0e be 8e b8 e7 3e 84 10 3e bf 23 6e 52 bd
       -0.13908966 0.45257992 -0.7424395 -0.051374566
000050 c5 ee 09 3f 07 86 2c be 1f 11 69 be 3e 09 54 be
       0.5387996 -0.16848002 -0.22760437 -0.2070665
000060 b8 21 a5 be 66 15 b0 3d b1 7e 48 bf 01 40 82 3e
       -0.32252288 0.085978314 -0.78318316 0.25439456
000070 96 08 7f be 68 ae c0 bd 8b ba 54 bd bb b4 be 3e
       -0.24905619 -0.09408265 -0.051935714 0.3724726
000080 03 08 f4 be 4a 6a 27 bf 56 ef 00 bf ea b0 0d bf
       -0.47662362 -0.6539656 -0.503652 -0.55348074
000090 9b 52 e6 be 1c 0f 10 3f 6f 07 20 bf 84 e7 c3 be
       -0.44984898 0.56273055 -0.6251134 -0.3826257
0000a0 cf 3d 26 bf b2 c5 ba be e8 79 94 bd ab c6 dd be
       -0.6493806 -0.36478955 -0.07249814 -0.43315634
0000b0 93 4f cd bb 0d 9b 72 3e 19 cb f7 bd 75 44 84 3e
       -0.0062655895 0.2369196 -0.12099285 0.2583348
0000c0 a9 e0 54 3e 5b a6 31 3f 63 28 99 bc de d6 16 3f
       0.20788826 0.69394463 -0.018696016 0.5892161
0000d0 e2 88 fe 3e db 59 af 3e eb f5 e1 3e a8 36 d8 be
       0.49713808 0.34248242 0.44132933 -0.422292
0000e0 cd f8 13 bf 6f 3d 9c 3e 49 90 8f 3e 04 e7 18 3f
       -0.57801515 0.3051562 0.28039768 0.597275
0000f0 28 85 01 be 7d af c1 bd 06 b7 18 3f e0 63 b7 3a
       -0.12648451 -0.094573 0.5965427 0.0013991557
000100 48 75 41 3f e7 69 b1 be e7 b4 87 be 1d 22 85 3d
       0.7556958 -0.3465111 -0.26505205 0.06500647
000110 66 e5 e1 3e 3e 5b 18 bf 00 de 27 be 8f 5e e0 3e
       0.4412033 -0.59514225 -0.1639328 0.43822142
000120 d1 e3 09 3e 6b 17 06 3f 76 72 8e be a3 e4 e1 be
       0.13465811 0.52379483 -0.27821702 -0.44119748
000130 0f b8 01 bf 8b f2 da be ce be 0f bf cc c6 b0 3e
       -0.50671476 -0.4276317 -0.5615052 0.3452667
000140 6f 25 5c 3e ba 0d e8 be a1 69 37 3f 8f 55 6c 3e
       0.21498655 -0.45322973 0.7164555 0.23079513
000150 0c e8 95 3e 78 12 98 be a8 cc 17 3f 54 e9 fc be
       0.292786 -0.2970159 0.59296656 -0.49396765
000160 37 58 18 3f 1e 9a bc be a1 83 ac 3e ad 2f 8b be
       0.59509605 -0.36836332 0.33694175 -0.2718481
000170 0d 9d 09 3f 74 60 17 bf 03 8c 2e be ff 99 3d be
       0.53755265 -0.5913155 -0.17045598 -0.18515776
000180 af 00 d4 be 84 11 b9 be 34 b7 6f be 99 e1 94 3d
       -0.41406772 -0.36146176 -0.2340973 0.07269592
000190 c9 d2 1d 3f ac b6 1e be 5b b1 4c 3f 65 e6 a2 be
       0.6164976 -0.15499371 0.7995812 -0.31816402
0001a0 6a 98 de be 18 54 c3 bc 30 49 2b be ad df 5e 3e
       -0.43475658 -0.02384381 -0.16727138 0.21765013
0001b0 aa 28 3c 3f ad 97 8a 3e a6 03 23 bf 69 4f 4a be
       0.7349955 0.27068844 -0.6367744 -0.19756855
0001c0 d7 4e 42 be 79 d4 1a bf bd 91 3f 3e 9c 56 25 3f
       -0.18975388 -0.6048046 0.18707938 0.6458528
0001d0 8d 03 ce 3e 55 89 ff bb dd fc 48 bd 49 6a 98 be
       0.40237084 -0.0077983537 -0.049069274 -0.2976859
0001e0 5b 61 e5 bd 52 4e 13 3f f3 50 c8 be 61 46 b3 3d
       -0.1120021 0.5754138 -0.3912426 0.08753658
0001f0 da 14 10 bf 91 c2 76 be 1a 11 18 3d 99 a6 fc be
       -0.56281817 -0.24097659 0.037125684 -0.49345854

value_layer.0.bias f4 [64]
000000 a8 57 01 3e 66 e4 0f bf 63 b1 94 be 58 ab f7 3e
       0.12631094 -0.56207883 -0.29041585 0.48372912
000010 86 d2 37 3f ed 33 cd bd ce 51 03 bf d8 99 29 bf
       0.7180561 -0.1001967 -0.512967 -0.6625037
000020 28 bd 07 be 1e b0 9f be a5 00 15 3f 3e 16 07 bf
       -0.13255751 -0.31189054 0.5820411 -0.52768314
000030 a4 90 e5 3e 97 fc 13 3e bf d4 4a be a3 4e 17 3f
       0.44836915 0.14451824 -0.19807719 0.59104365
000040 dc ea db 3e ee 22 1f bd e9 4b e8 be 65 56 14 be
       0.4295262 -0.03885167 -0.45370415 -0.14486082
000050 e3 81 83 3e 2c c7 22 3f e9 fd 6c be 56 27 99 be
       0.25685033 0.6358516 -0.23143734 -0.29912823
000060 a3 fe 36 bf 75 00 fc 3e 8e d5 3c 3f 26 64 06 3f
       -0.71482295 0.492191 0.7376336 0.52496564
000070 29 f9 b9 be 20 cc 0a 3f 69 32 2f be 43 a7 a2 3e
       -0.36322907 0.5421772 -0.17109074 0.31768236
000080 19 36 cb 3e ec b0 06 bf 24 15 2e 3e 3c 8a 86 3e
       0.3968971 -0.5261371 0.17000252 0.2627734
000090 38 18 eb be 21 3d 2e 3f 90 04 12 3f f1 f0 14 3f
       -0.45916915 0.68062025 0.5703821 0.5818015
0000a0 54 0b 25 bd b4 3f c6 be af 51 d5 be 62 6a 6b 3e
       -0.040294006 -0.38720477 -0.41663882 0.229898
0000b0 ab e8 18 be 25 64 04 3f 34 d5 11 3f df 63 e5 3d
       -0.14932506 0.5171531 0.5696595 0.112006895
0000c0 85 2c 25 bf 1b b1 9e 3e 76 79 14 3f 86 9b 3a be
       -0.64521056 0.30994496 0.57997835 -0.1822339
0000d0 32 14 a4 be 2c d4 0b be 34 8b ac 3d 70 7e f1 be
       -0.32046658 -0.13655156 0.084249884 -0.47166777
0000e0 47 32 d2 3e 98 d4 c1 3e c5 c6 96 be 6e 99 86 be
       0.41053984 0.3785751 -0.29448524 -0.26288933
0000f0 b7 91 b2 be 81 7f 08 3f a5 a3 c9 3e d9 1b 51 3e
       -0.34876797 0.53319556 0.39382663 0.2042078

value_layer.2.weight f4 [64, 64]
000000 48 72 dd ba 2a f2 63 3c 69 61 ba 3d 94 42 91 3d
       -0.001689502 0.013912717 0.09100611 0.07092777
000010 d8 c1 a9 bb 43 2d 93 3d 5e 41 ad bd 1e 30 7d bd
       -0.0051805787 0.07186367 -0.084597334 -0.061813466
000020 2f 32 76 bd 70 22 86 3b 4b 32 20 3c 23 9e f7 bd
       -0.060106453 0.0040934607 0.009777616 -0.12090709
000030 1c f4 f3 3d 8b b5 13 3e 61 f9 dc bd 61 ac b0 3d
       0.119117945 0.14424722 -0.10789753 0.08626629
000040 67 6e 2b bd 53 1c 26 bc 42 9f 91 3d ad 47 0d 3b
       -0.041853335 -0.010138589 0.07110454 0.0021557615
000050 c0 7b 92 3d 4c fd ff 39 f7 21 ea 3d eb 59 52 bd
       0.0715251 0.0004882611 0.114322595 -0.051355284
000060 a7 ae ce bc 59 64 71 3d 9c 69 09 3e 83 5a 5d 3b
       -0.025229765 0.05893359 0.13419193 0.0033775873
000070 e7 7b b5 3d cc 2c b3 3d 8f 19 22 3d ae e9 b5 bb
       0.08861523 0.08748779 0.039575156 -0.0055515384
000080 37 e5 dc 3c b1 f0 b8 3d 89 8f 7e bd d7 eb 6b bc
       0.026964767 0.09030283 -0.062148605 -0.01439949
000090 0e 28 51 3d 5d c9 e9 3d 3f f4 9a bd e6 d4 a0 3d
       0.05106359 0.1141536 -0.075661175 0.07853107
0000a0 82 67 19 be cf a5 d2 bd 45 b2 43 3c c2 90 3a 3d
       -0.14980891 -0.10285532 0.011944358 0.045548208
0000b0 0c 3e 66 bd a8 3f e0 3d 89 c0 ee 3d e8 48 fe 3d
       -0.056211516 0.109496415 0.11657817 0.124162495
0000c0 b9 b8 25 be 0b 68 ff bb ec 10 b9 3c 32 1d 95 3d
       -0.16183747 -0.0077943853 0.022591077 0.07280959
0000d0 66 28 9c bc 01 56 2e 3d 3b 92 38 3d 82 f6 bb bd
       -0.019062232 0.04256249 0.04506133 -0.09177877
0000e0 51 a1 97 bd 87 f5 31 3e 58 7a 16 bd 90 cd 32 3d
       -0.074038155 0.17378817 -0.03673777 0.04365307
0000f0 39 17 df bd 96 e6 1b bc 08 ec fc 3d 21 0f f5 bc
       -0.10893101 -0.009515425 0.12349707 -0.02991444
000100 d2 4c 16 3d 43 ca f6 bd ed cd ca 3d 9f ce 19 bd
       0.036694355 -0.12050297 0.099025585 -0.037550565
000110 d6 9a 0f 3d 59 55 77 bd d1 03 ab bd 0c 26 17 be
       0.035059772 -0.06038413 -0.08350337 -0.14760607
000120 62 14 c4 bd 81 80 69 bc 42 ff 5b bd d3 da 79 3d
       -0.095742 -0.014251829 -0.05371023 0.060999703
000130 27 7b f7 3c 99 db fa 3d c6 8e c8 bc 9f cf 80 3d
       0.03021009 0.12248916 -0.024482142 0.062896006
000140 e0 e3 2c 3e 01 99 94 bd d8 14 3f bd 72 ef f2 3d
       0.16883802 -0.07255746 -0.046650738 0.11862077
000150 4a a8 b3 3b 43 1f 4b 3c 3a fa 55 bb 27 ad 83 bd
       0.005482708 0.01239759 -0.0032650367 -0.064295106
000160 a2 a3 44 bd af 98 97 bc 69 54 99 3d 98 37 0e bd
       -0.048007615 -0.018505422 0.07486803 -0.034720987
000170 24 c9 f4 bc b7 3c 07 bc 6e 21 cf 39 b8 4c 5c 3d
       -0.029881068 -0.008254222 0.00039507024 0.053784102
000180 a6 dd 04 be 5e bb f2 bd a1 84 0b be 93 73 b0 3d
       -0.12975177 -0.11852144 -0.13624813 0.08615794
000190 23 b9 27 3d 10 8c 82 bd 56 ae 90 3d 49 6f 55 3d
       0.040948045 -0.06374371 0.07064502 0.052108083
0001a0 bc f3 b2 bd c8 35 ab bb ee f4 8a 3d 21 6f d8 3d
       -0.08737895 -0.005224917 0.06784998 0.10568071
0001b0 8f a9 ff 3c 37 c2 8f bc 38 94 9b bd fe dc 8e bc
       0.031208782 -0.017548664 -0.0759663 -0.017439362
0001c0 b3 c3 02 bd af 0b a9 3c a9 c0 d5 3d d5 f0 0c be
       -0.031924915 0.020635454 0.10437138 -0.13763745
0001d0 aa d6 5d 3c 60 69 e9 bc f9 96 73 bc 4b fc cf 3d
       0.013539949 -0.02849263 -0.014867538 0.10155543
0001e0 7d 24 43 3c fa 5f 3a 3c f0 2f 91 bd cb fb 1e be
       0.011910555 0.011375422 -0.070892215 -0.15525739
0001f0 07 96 da bd ff f7 ad 3d 0d e7 33 bd 77 04 76 3d
       -0.10673147 0.08494567 -0.04392152 0.06006285
000200 cc ea 50 bd 66 db 99 3d 0c 2b ff 3d ec 30 8a bc
       -0.05100517 0.0751255 0.124593824 -0.01686903
000210 48 12 5f bc 82 66 a2 3d bd e4 7f ba 0c 6e 19 3e
       -0.013615198 0.07929708 -0.00097615627 0.14983386
000220 f7 7e 04 be 98 27 e4 3d 12 7b 56 bd 58 9c 4a 3d
       -0.12939058 0.111403644 -0.052363463 0.049465507
000230 0a 21 ea 3c 33 a8 c0 bc e8 01 f6 3d 92 32 d7 bd
       0.028580207 -0.023517704 0.12012082 -0.105076924
000240 cc 78 ef bd 49 b6 d2 3d 10 16 b7 bd ca 2f b8 3d
       -0.11692962 0.102886744 -0.08939755 0.0899349
000250 b6 53 ab 3d 35 ea eb 3c ef f5 25 bd c4 e9 2c bc
       0.08365576 0.028798202 -0.040517744 -0.010553781
000260 d1 ad 4a bd 99 c1 ea bd 39 9c a8 bd 53 5e 94 bd
       -0.04948217 -0.11462707 -0.08232922 -0.072445534
000270 1e 08 6b 3d c8 c6 0b 3c 71 24 54 3c fb 92 84 bc
       0.057380788 0.00853128 0.012948141 -0.016183367
000280 7f 85 0b 3e b7 ab 1f 3d 31 0c 07 3e 04 6c 9e 3d
       0.13625143 0.03898212 0.13188244 0.07735446
000290 6c 93 16 3c f7 5d 3d be 2f 0c 92 3d f8 1d d6 bd
       0.009190422 -0.18492876 0.0713123 -0.10454935
0002a0 ff 0d 1a 3e 4a 0e 2a bd d8 47 7f 3d d2 8b 7a 3d
       0.15044402 -0.041517533 0.062324375 0.0611685
0002b0 de f8 27 3b 0c f1 b4 3d e6 46 d6 bd 69 ed a9 bd
       0.0025630514 0.088350385 -0.104627416 -0.082972355
0002c0 48 5d 12 3d d0 24 61 3d 1c d4 fa 3c 58 e2 e7 3d
       0.03573349 0.054966748 0.03061872 0.113224685
0002d0 02 fb 6a 3d 15 53 bd 3d 10 59 30 bc 59 53 b9 3a
       0.057368286 0.09244362 -0.010763422 0.001413922
0002e0 b0 7e 9c bc 55 ed 5a bb 3d 12 6c 3a b8 0a bd 3d
       -0.019103378 -0.003340562 0.0009005403 0.0923056
0002f0 43 0c 92 3c 99 4f 3e bc a0 91 80 3d 6e da 28 3d
       0.017828112 -0.011615657 0.06277776 0.041223936
000300 30 22 c1 3d 40 09 04 bd 74 b9 ac bd 82 fe 3e 3d
       0.09430349 -0.032235384 -0.0843381 0.046629436
000310 53 64 83 3c c0 54 9d 3d 19 56 a2 3d 36 aa 13 3d
       0.01603905 0.076821804 0.07926578 0.036050998
000320 b5 64 e5 bd ac 3f 0d be 32 da 10 3d e9 cb f9 3d
       -0.11200849 -0.1379382 0.035364337 0.12197096
000330 01 80 2e bd 04 4d 92 bd 2e de 5e 3d 78 b9 c0 bd
       -0.042602543 -0.07143596 0.054411106 -0.09410375
000340 a3 cd 70 bb 6b 05 04 be cd 93 07 be 99 4c ba bd
       -0.0036743663 -0.12892692 -0.13239975 -0.09096641
000350 47 04 6d bd d0 b4 5a 3c 48 a0 81 3d 66 d6 c0 bd
       -0.057865407 0.013348773 0.06329399 -0.09415893
000360 3e e3 b6 3c d8 d4 17 3c 6c bc 51 bd 77 01 b0 3c
       0.022325154 0.0092670545 -0.051205084 0.021485073
000370 f5 1e 71 3d dc b7 82 bd e0 b3 b0 3d 6c 99 f5 3d
       0.058867414 -0.06382725 0.086280584 0.119921535
000380 ab a2 86 3d d2 35 c4 bb 81 56 5f bd 42 7f e6 bd
       0.06573995 -0.005987861 -0.054525856 -0.11254741
000390 6d 6c ec 3c 35 1b 2b bc c5 5b f1 3c 40 ae 15 bd
       0.028860295 -0.010443498 0.029462704 -0.03654313
0003a0 84 f0 01 3e 15 ea 6e bc 7c 05 65 3d 47 e6 1d bd
       0.12689406 -0.014582177 0.055913433 -0.038549688
0003b0 d2 bf 7f 3d 64 3f e8 3d 78 ef 79 3d 11 d1 e3 bc
       0.062438793 0.11340216 0.06101939 -0.027809652
0003c0 9a b3 c7 bc 77 24 0a be cc 31 b0 bd b5 a6 9d bd
       -0.024377633 -0.13490473 -0.08603248 -0.076978125
0003d0 27 a7 9a 3d 9a f4 95 bd 3c 56 38 3c 97 95 d5 bd
       0.07551413 -0.07322045 0.011251029 -0.104289226
0003e0 4a a8 10 bd b2 63 a7 3d 28 4e 62 3d 22 64 de 3b
       -0.035316743 0.08173312 0.055250317 0.006786839
0003f0 29 3b 46 3d ba 47 82 3d b3 86 7e 3d e4 10 96 bd
       0.048396263 0.06361337 0.062140178 -0.073274404

value_layer.2.bias f4 [64]
000000 14 36 14 3e 58 45 66 bd c4 92 55 bc f6 85 13 be
       0.14473754 -0.056218475 -0.01303548 -0.14406571
000010 e7 16 f9 3c c0 ea 16 3e 08 aa 3b bd 80 20 31 be
       0.030406429 0.14737988 -0.04581645 -0.17297554
000020 d1 b9 d1 bd d3 e2 22 bd ac 7e 62 bd 88 64 ec bd
       -0.1024052 -0.039767098 -0.055296585 -0.11542612
000030 84 b2 ca bc b7 36 d1 bd c8 0b e0 bd 07 f8 27 3d
       -0.024743326 -0.10215514 -0.10939747 0.04100802
000040 dd 0b c2 3a 5d 67 75 bc 0b b1 d0 bd f1 32 94 3d
       0.0014804561 -0.014978257 -0.10190018 0.07236279
000050 d2 1d e9 bc e2 ee bf bb 81 83 7a 3d 0e 6d 61 3d
       -0.028456602 -0.0058573345 0.06116057 0.055035643
000060 d2 d8 e3 3d db 0c dc 3d c4 3a 56 bd 38 4d 46 3e
       0.111253396 0.107446395 -0.052302137 0.19365394
000070 bf de 32 3d 23 f5 7e 3d ac 5f ea bc 76 4c 99 3b
       0.04366946 0.0622455 -0.028610073 0.0046783043
000080 15 be d8 3d 4d 0b 03 bd 8c db 52 3d ae 48 36 bd
       0.1058313 -0.0319932 0.051478907 -0.044502907
000090 b3 2d cc ba 63 f8 e2 bd d7 8b ac bd 49 eb f5 3c
       -0.0015577584 -0.11082532 -0.0842511 0.03001942
0000a0 96 0f 24 bd dc d5 9c 3d 84 f7 1d 3e 99 82 b6 bd
       -0.040053926 0.07657978 0.15426451 -0.08911628
0000b0 0b 85 84 bd c2 2d f9 bc 4f 74 36 3d 87 47 48 bc
       -0.064706884 -0.030417327 0.044544514 -0.012224085
0000c0 ad 6a 22 be c4 f6 f4 bd db 5a 0f 3c 6f 9a 70 bd
       -0.15861006 -0.11961129 0.008749689 -0.05874103
0000d0 12 4c 7c bd 9d c3 0e 3d 60 68 a9 bc b7 c9 17 bd
       -0.061595984 0.03485452 -0.020679653 -0.037057605
0000e0 0c 9f b6 bc 3e 0e e5 3c fc 7b f9 bc 30 9e 50 bd
       -0.022292636 0.027960893 -0.030454628 -0.05093211
0000f0 52 f9 f0 bd a8 dd 60 3d aa ef 83 3b 6e 12 37 be
       -0.11766304 0.054898888 0.004026373 -0.17878124

value_layer.4.weight f4 [1, 64]
000000 6f f6 ee bd 07 70 b7 bc 80 95 aa 3d e0 a4 b0 3c
       -0.11668097 -0.022392286 0.08329296 0.021562994
000010 70 01 a1 bd 22 58 08 be 49 d2 a4 bd eb 83 69 3d
       -0.07861602 -0.1331487 -0.08047921 0.057010572
000020 d1 ef ba 3d 15 b5 c5 3d e6 8e 06 3d 58 7e d6 3d
       0.091277726 0.09653679 0.032851122 0.10473317
000030 5a eb 12 3d cc 6e 14 3d 77 b9 d1 3d 5d f5 8a bd
       0.03586898 0.036238477 0.10240453 -0.067850806
000040 34 71 ab 3b ad d7 13 3c 5a 4d a6 3d bc bc 96 3c
       0.0052320007 0.009023589 0.081202224 0.018400542
000050 f5 31 bd 3d 3d 37 f9 bd 61 6e bd 3d 53 46 10 be
       0.09238044 -0.12168739 0.09249569 -0.14089327
000060 15 e2 b2 bd cd a9 f2 bd 24 82 e1 3c ef 3b 85 bd
       -0.08734528 -0.11848793 0.027527876 -0.06505572
000070 54 bb 1d be e0 ca cf 3d cc f8 59 3d 50 48 c2 3d
       -0.15403491 0.10146117 0.053215787 0.09486449
000080 60 44 fa bd d0 5c 10 be 89 4a 0b 3d 34 86 92 3d
       -0.12220073 -0.14097905 0.03400663 0.071545035
000090 ff 65 e0 3d 8f 82 ac 3d c3 8f 86 3d 30 2f 03 3d
       0.10956954 0.084233396 0.06570389 0.032027423
0000a0 31 b0 af bd 57 c8 e7 bd df 90 00 be 62 44 eb bd
       -0.08578528 -0.11317509 -0.12555264 -0.11487652
0000b0 c2 4d d6 3c a7 8a a4 3d 84 17 f8 3d 6c 0b fb bd
       0.026160125 0.08034258 0.1211386 -0.12258038
0000c0 37 09 a1 3d cf 19 1a 3e 3a da 2a 3d 02 34 77 bd
       0.07863086 0.15048908 0.041712023 -0.060352333
0000d0 a6 e8 7b bd 5c 07 21 bd af 9d 8a 3d 95 0d 93 bd
       -0.061501168 -0.03931366 0.06768357 -0.07180325
0000e0 4c 7b 62 bd 4f 0f c2 3d f5 1c 87 bd d3 59 0b bd
       -0.055293366 0.09475576 -0.0659732 -0.03402121
0000f0 1f a4 41 3d 5b d0 fe 3d 59 36 a0 bc 94 48 35 3d
       0.04727566 0.124420844 -0.019557165 0.04425867
