flappybird-ppo/solution/PPO_FlappyBird-v0-eps0.5.pth (torch, 39361 bytes, 11 tensors)

action_layer.0.weight f4 [64, 2]
00000000: 213c c83e 4309 513e 0997 8cbe 7eb7 523f
00000010: a6fc 97be 412a aabd 6784 e1be 655f 0a3f
00000020: 6063 3b3f edea 1dbf cd36 eb3e 0306 b1be
00000030: 2dbc 033f 9582 e0bd 716b e73e af23 6abe
00000040: f330 1d3f c06c df3d 1fbb a9be 5d68 083f
00000050: 9f7e acbe de56 46bd 8c9a 9fbe 8b97 393f
00000060: e19c fdbe 543a 57be 3613 14be a816 23be
00000070: 227d 203e a623 7dbf 8390 383f 9c35 3abf
00000080: 0d5f f33e f5ec adbd 51a1 b3be bfda 043f
00000090: 535a 8ebe f66c e33e 69f9 f83d 4d09 07bf
000000a0: b6e9 4b3e bf0f 08bf 7fc2 c13d bf3c 333f
000000b0: 606e d93e 7e2c 0bbf 2b16 b63e dcc2 1e3e
000000c0: 2743 dd3e 68a8 1ebf d600 28bf 06ad cd3d
000000d0: 9720 36bf b85b 263f e4e5 8e3d b0dd c83e
000000e0: e22f 7d3e dad6 a9be 8753 093f 80ad 51bf
000000f0: a7a7 293e 6196 24bf 14bf da3e 5d75 75be
00000100: dcfb 103e 6744 05bf 75dc 0d3f aa07 3fbf
00000110: b046 97be 4fd7 92be 2bc9 243f a3cd 663e
00000120: 0f68 0d3f ccc7 80bf 34ba fabe ab50 1fbe
00000130: 695d e7be 138e 1e3f fe4d 213e a755 b43e
00000140: ab30 a3bc 4edb cabe ce8d 013f 1547 acbe
00000150: 1c8f 053f 5a5b 9dbe 0cd4 e13e 04f3 4cbf
00000160: 3724 fbbe 78e1 723e 1ca8 9e3e 2743 22be
00000170: 3f1f 0d3e dc27 aa3e bed2 fdbe 1563 38bd
00000180: db67 2f3f 53aa c8be d82b 583d 49de 49bf
00000190: 6d80 11bf 3e64 f33d 722b b93e c718 f8bd
000001a0: 3aa1 223e 1054 11bf a527 aebe a200 1dbe
000001b0: 99dd eabe f2c5 6ebe 4f87 393f 2c8e 07be
000001c0: 01eb 7d3e 0380 6fbf 7d5b 6ebe 9805 25be
000001d0: c0c9 313e 329a 4bbf 974e 4bbe 145e 16be
000001e0: 60fc 823e 4a0d 62be f12a 293e 9a28 f8be
000001f0: c4d7 e6be ddbf 0abd 03f2 2c3e aeaa cfbe
0.39108375 0.2041369 -0.2745898 0.82311237 -0.29684943 -0.083088405 -0.44046327 0.5405181
0.7319851 -0.61686593 0.45940247 -0.345749 0.5145901 -0.109624065 0.4519916 -0.22865175
0.61402816 0.10909414 -0.33150575 0.53284246 -0.33690354 -0.048422687 -0.31172597 0.7249686
-0.49533752 -0.21018344 -0.14460453 -0.15926611 0.15672734 -0.9888252 0.7209551 -0.7273805
0.47533455 -0.084924616 -0.35084012 0.5189628 -0.27803287 0.44419068 0.12156946 -0.52748567
0.19913372 -0.53149027 0.09460925 0.70014566 0.42467022 -0.54364765 0.35563788 0.1550402
0.43215296 -0.6197572 -0.65626276 0.10042767 -0.7114348 0.649837 0.06977442 0.39231634
0.24725297 -0.3317173 0.5364308 -0.81905365 0.1656786 -0.6429196 0.42723906 -0.23970552
0.14158577 -0.520575 0.55414516 -0.7462107 -0.29546118 -0.28679892 0.6436946 0.22539382
0.55236906 -1.0060973 -0.48970187 -0.15558116 -0.45188454 0.6193554 0.15752408 0.35221598
-0.019920668 -0.3962044 0.50607 -0.3364798 0.5217149 -0.30733758 0.4410709 -0.8005831
-0.49051067 0.23718822 0.30987632 -0.15845929 0.1378145 0.33233535 -0.49574846 -0.045016367
0.68517846 -0.39192447 0.052776188 -0.78854805 -0.5683659 0.11884354 0.3616596 -0.12114101
0.15881816 -0.56768894 -0.3401462 -0.15332273 -0.4587219 -0.23317698 0.7247209 -0.13237828
0.24796678 -0.93554705 -0.23277088 -0.16115415 0.17362118 -0.7953216 -0.19854198 -0.14684325
0.25583172 -0.22075382 0.16520287 -0.48468477 -0.4508649 -0.03387438 0.16889195 -0.40559906

action_layer.0.bias f4 [64]
00000000: b104 823e ae02 70be 4ae1 a23e a446 ba3d
00000010: f125 f3be 47dd 553e 2af8 43be b133 16be
00000020: a8e9 e8be 83ee 12bf 80ab 0a3e 33d6 26be
00000030: e03c 9c3e 4e90 b2be fb9b 063f 85d1 d2be
00000040: 190e 23be 1f95 57bc 8b1f a6bd 9544 fe3e
00000050: d844 093f 1747 37bf 167a 0f3e 146f 84be
00000060: f9e7 95bc 3233 b2be b02f e73e e5c8 0cbf
00000070: e812 923e c2da 233e 4702 a63e 71a4 25be
00000080: 6314 f13e c6ef 813d 62c8 5e3e 7660 0abf
00000090: 8ef4 023e 17dc 5f3e a0ad 5ebe 2fb9 a43e
000000a0: 75e3 e43e d27b 66be ba1b 81be 2dfb 65bb
000000b0: d60a 683e 672e 9c3c 3706 26bf c310 b4bd
000000c0: 1007 eebe c66e 023f 2dc9 a03e 949d aabd
000000d0: c8d0 a13e 2e38 0f3f e9f0 a03e e0eb 9dbe
000000e0: 797c b43e b086 f83e c35f a63e fbe4 d73d
000000f0: c6b6 a93d a83c 8e3e 33b9 423d 3f15 443e
0.25394204 -0.23438522 0.31812507 0.09095505 -0.47489884 0.20885192 -0.19137636 -0.14668156
-0.45490766 -0.5739519 0.13541985 -0.16292648 0.30515194 -0.3487572 0.5258176 -0.41175476
-0.15923347 -0.013158112 -0.08111485 0.496617 0.5362067 -0.7159285 0.14011416 -0.25865996
-0.01829909 -0.34804684 0.4515357 -0.5499404 0.2853005 0.16001418 0.32423612 -0.1617601
0.47085866 0.06344561 0.21756127 -0.5405344 0.12788603 0.21861301 -0.2174592 0.32172534
0.44704786 -0.22508171 -0.25216466 -0.003509234 0.22660384 0.019065095 -0.64853233 -0.087922595
-0.46489763 0.50950277 0.31403485 -0.08330837 0.316046 0.559451 0.314338 -0.3084402
0.35251215 0.48540258 0.32494935 0.105417214 0.082868144 0.27780652 0.0475399 0.1914873

action_layer.2.weight f4 [64, 64]
00000000: 65b6 92bd f944 b23e 2ceb 9cbd e0cd 8a3c
00000010: be6b 34bd 834f 42be 1241 95bc 0d88 883b
00000020: eec2 4abd 158f 263e 75e8 9e3d 5195 5c3e
00000030: 6975 36bb 66ce 6b3d f8e2 b8be 3f7b 3cbe
00000040: 1f32 b4bd 4f03 723d 9738 273d 06d0 11be
00000050: f651 9ebe 6487 793e 040f 79be 3f99 3b3e
00000060: 6d1c 1dbe 723a 1e3e 3a66 813d 9ef0 2d3e
00000070: 3a7b 80be 2cfb 24be 6fd1 9cbe 82e6 f1bb
00000080: bb38 9fbe 5bd7 13be 124d d63d f3aa ef3d
00000090: 6c62 a1be 3ba0 01bd 9948 023e 0aa4 2ebd
000000a0: bc11 22bd 147f 8f3d 4e5c 043d e64e 03be
000000b0: f145 f5bb 27ff a5bd 499b d03d 4a5d 253d
000000c0: fa53 853c 9f48 88be 36f8 74bd 3c93 51bc
000000d0: 57d8 7cbe 1a66 3dbe 8736 08bd 1f64 e2bd
000000e0: b15a 93be 9d98 82bd 6bb3 5abe f542 48bd
000000f0: 7ce5 81bc c73a 82be ae72 af3d 4df6 10be
00000100: 5ac4 d83d d671 113d be17 5a3d 2505 023e
00000110: 2aaa 89bc c546 b2bd 36e4 d63d b079 42bd
00000120: a74b db3d 85a4 db3d 9430 8ebd 7961 a93d
00000130: 23c8 2cbd dbf6 13be 7f42 b5bc 7636 79be
00000140: 89dd b93d b01d 123e 2088 fb3d 0203 08bd
00000150: 6990 c6bd b6d8 da3d fc94 263d 6635 9bbd
00000160: e442 d5bd 89cb c7bd 742a cb3d cadc 52bd
00000170: cb07 1ebd 1ac2 aebd 4254 4fbe 3fe8 be3d
00000180: d122 dc3d 6e10 8fbd efe8 cbbc d988 433c
00000190: 2c9f 45be 2f87 0bbe edab 803d 5cea d0bc
000001a0: 2b58 70bd d6b9 ecbc af6c 6bbd b589 24be
000001b0: 34ef 0d39 8cbf 34bb 0baa 2cbd 645a b6bd
000001c0: a00b 23be cef2 9e3c c63f 83bd e997 503d
000001d0: e70d 07be ba3d 3e3d cc29 c63d 46cb 723d
000001e0: ac9f 4cbe 82c3 2e3d 289a d63a 12a5 2d3d
000001f0: 720c a23d 8062 883d 9525 25bd 2f21 fc3c
00000200: 73d2 863c 951f 59be 1e48 023d a7ba ddbd
00000210: 085c c53d 10de 043d 28c9 1b3d cfe2 2e3d
00000220: c910 983d ad3f 31be 47da 07bd daa7 f0bd
00000230: f0d0 23be 0a16 34be 9389 5c3e 7f7e cd3d
00000240: 510a a83d 0df5 9cbd 78f7 9abd 9ba6 c53d
00000250: 5505 ed3d 633a edbd d581 da3d 7a0d 4fbc
00000260: df1a a43d f060 50be 7b8c 7cbc ae6c a8bd
00000270: 4774 e23c b1ee 613e 1b0e 513e b365 363e
00000280: 9a9b 503e 80e1 833e 9bf3 19be e90d 1c3e
00000290: 94fa 803e 9db9 a7bd 4933 79be 368d 4b3e
000002a0: 8043 b73b aa05 fb3d 7fa8 513d 77c3 2f3e
000002b0: f855 d7bd 0269 453e ef53 11bd c733 5ebe
000002c0: 6ddb 823d 4868 bf3d aeb1 23bd c912 b23d
000002d0: 9deb af3d 9b4c ebbc abe8 17be 7d4d ef3d
000002e0: 4fd5 323e 8c87 aa3c 15d0 4a3e acc7 ecbd
000002f0: fd4e 1e3e 3bea 523d e2d2 53bd 2b36 193e
00000300: cc9c 2a3e a284 003d 2106 bbbc 6255 0a3c
00000310: b416 963c a8da 0c3e 1d8d 2b3c e44b 8dbd
00000320: ee78 53bb 1091 0ebe ae9b 883d 4d07 19be
00000330: bae1 dcbd 5691 0dbe d6fd 863e 94b9 d1bd
00000340: 3e4f e83b 224f 263e f105 7a3d 50a4 503e
00000350: 57e4 243e fc77 d7be 39b6 2c3d 18f7 2fbe
00000360: 6d75 b2bc 57f4 19be b53d 183d db1c 99be
00000370: 0e56 923e b2ce 523e 3108 5b3e 7ceb e9bd
00000380: b6c8 093e 3444 3e3e fe23 cbbd 785f 3bbe
00000390: b0c9 fe3d 78c9 07be c0c1 87be 5103 6a3e
000003a0: 742b 5b3e 275b 6dbc 8305 82bd d03e b7bd
000003b0: 5c72 b63c 9618 b53b ba15 24be f5d6 34be
000003c0: bff5 d6bd c818 6e3e d775 e7bc f7ea 5e3c
000003d0: a9b1 ee3c a095 e53d 48a7 8dbd f22f ec3d
000003e0: d36e f83d 0354 893e 1824 453c 5cc1 323d
000003f0: d529 e33d 600d 863d f9a3 5fbe 8f0f e23d
-0.07163695 0.34818247 -0.07662043 0.016943872 -0.044048063 -0.18975644 -0.018219505 0.004166609
-0.049502306 0.16265519 0.077591814 0.21541335 -0.0027840978 0.057569884 -0.36110663 -0.1840639
-0.08798622 0.059085187 0.040825453 -0.14239511 -0.30921906 0.24368054 -0.24322134 0.18320177
-0.15342875 0.15451983 0.06318326 0.1698632 -0.25094014 -0.1611144 -0.30628535 -0.007382215
-0.3109797 -0.1443762 0.10463919 0.11702528 -0.31520402 -0.03164695 0.12723006 -0.04263691
-0.039567694 0.0700666 0.03231459 -0.12823066 -0.0074851443 -0.08105307 0.10185868 0.04037217
0.016275395 -0.26617905 -0.059807025 -0.012791451 -0.24691902 -0.1849598 -0.033255126 -0.11054253
-0.2878013 -0.06376765 -0.21357505 -0.04889198 -0.015856497 -0.2543547 0.08566795 -0.14156456
0.10584326 0.035508953 0.0532453 0.12697275 -0.016804773 -0.087049045 0.104927465 -0.04747933
0.10707789 0.10724739 -0.06942859 0.082705446 -0.042183053 -0.14449637 -0.022126434 -0.24337181
0.090754576 0.14269137 0.12281823 -0.033205993 -0.09695513 0.106858656 0.040669426 -0.07578544
-0.10413149 -0.09755618 0.09920207 -0.051480092 -0.03858165 -0.08533116 -0.20246986 0.09321641
0.10748828 -0.069855556 -0.024891345 0.0119344825 -0.19299 -0.13625787 0.06282792 -0.025502376
-0.058677834 -0.028897207 -0.057476696 -0.16068156 0.00013535918 -0.002757999 -0.042154353 -0.089039594
-0.15922403 0.019402888 -0.06408648 0.050926123 -0.13188897 0.046445586 0.09675941 0.059275888
-0.19982785 0.04266692 0.0016372846 0.04239375 0.0791253 0.066594124 -0.040319044 0.030777542
0.016457772 -0.21203454 0.031807058 -0.10826617 0.09636694 0.032438338 0.038033634 0.04269677
0.074250765 -0.17309447 -0.03316715 -0.11750765 -0.15997672 -0.17586532 0.21536855 0.10033893
0.08205093 -0.07663927 -0.07566732 0.09650918 0.11573283 -0.11583402 0.10669295 -0.01263749
0.08012938 -0.20349479 -0.0154143525 -0.08223854 0.027643336 0.2206371 0.20415537 0.17812233
0.20371857 0.2575798 -0.15034334 0.15239681 0.25191176 -0.081897 -0.2433597 0.19878086
0.0055927634 0.1225694 0.05118608 0.17164408 -0.10514444 0.19278339 -0.035480436 -0.21699439
0.063895084 0.09346062 -0.03996437 0.08694989 0.085898615 -0.028723052 -0.1483485 0.116847016
0.17464183 0.020816587 0.1980594 -0.11561522 0.15459819 0.05149291 -0.051714785 0.1496207
0.16661376 0.03137649 -0.02283007 0.008443208 0.018321373 0.13755286 0.010470656 -0.068992406
-0.0032268125 -0.13922524 0.066703185 -0.14944191 -0.107852414 -0.13824973 0.26365536 -0.10240474
0.0070895245 0.16241124 0.061040822 0.2037518 0.1610273 -0.42083728 0.04216597 -0.17184103
-0.021784509 -0.15034615 0.037168223 -0.29904827 0.2858128 0.2058666 0.21389844 -0.11421868
0.13455471 0.18580705 -0.09918974 -0.18298137 0.124408126 -0.13260448 -0.26515007 0.22852828
0.21403295 -0.014487064 -0.063487075 -0.089475274 0.022271328 0.0055266125 -0.16023913 -0.17660125
-0.10496091 0.23251641 -0.028254433 0.013605825 0.02913745 0.11210179 -0.06916672 0.11532582
0.12130513 0.26821908 0.012032531 0.043641433 0.11091963 0.0654552 -0.21839894 0.11038124

action_layer.2.bias f4 [64]
00000000: d678 2dbe 6fa6 a13d a6fa b93d 0049 973e
00000010: d730 0abe fe99 2fbe aaa5 cbbd 22ac dc3d
00000020: 58b9 343b 8ca1 503e 6518 85be 7b07 5dbe
00000030: 2be0 693e 1f4c 1ebe 7a3b 0a3e 0455 af3b
00000040: df2e 1a3e a3e2 42bc ecd3 14be 315a 093e
00000050: f50a b33d 9e32 90be a6e9 2cbe 2616 383e
00000060: 65f0 41be 8c0e 133e 8f9a 9cbd 39e3 10be
00000070: 157f 3ebe 2328 c9bc 5a66 3b3e b0d5 363d
00000080: 214d b13d 62f8 503e 33c0 973d ecc4 e4bd
00000090: ac39 78be e641 793e 547e babd 516f 16be
000000a0: 55ca 4e3c a46f 753e c16d 0dbe aafb a0bd
000000b0: bcd1 07bd b836 ca3d 48da d73d 0b8e 6bbe
000000c0: 819c bebd 5ae1 e23d afc6 143e 9951 333e
000000d0: b09c 473d 2b9d 0d3e 7939 3b3e 9f85 eabd
000000e0: f36a 843e d34d 003e 2410 f13c bca9 9cbc
000000f0: 3f5e 74be 4dd7 e23d faff 46be 3f41 56bd
-0.16940627 0.07893073 0.090810105 0.29547882 -0.13495193 -0.17148587 -0.09943707 0.10775019
0.0027576294 0.20374125 -0.25995174 -0.21584885 0.2283942 -0.15458725 0.13499251 0.005350711
0.15056942 -0.011894855 -0.14533967 0.13413312 0.08742324 -0.28163618 -0.16886005 0.17977199
-0.1893936 0.14361018 -0.07646667 -0.14149179 -0.18603165 -0.024555271 0.18300763 0.044637382
0.08657289 0.2040725 0.07409706 -0.11170372 -0.2424075 0.24341545 -0.091061264 -0.14690901
0.012621482 0.23968369 -0.13811399 -0.07860501 -0.033159003 0.09873718 0.10539681 -0.23003404
-0.093071945 0.11078139 0.14528917 0.17511596 0.048733413 0.13829486 0.18283643 -0.114512675
0.25862846 0.12529688 0.029426642 -0.019123904 -0.23864077 0.110762216 -0.19433585 -0.052308317

action_layer.4.weight f4 [2, 64]
00000000: adc7 c73d d5fb 44bd 3e4d b3bd 3368 28be
00000010: 8c6d a53c 98ec 953d 747e 68bd 8577 c7bd
00000020: 533b 23bd 96a9 10be 10bf 853d 428b 6a3d
00000030: 16ad 14be f3c3 5f3c 5114 89bd 0cc5 133d
00000040: 1f52 1fbe 7ff4 5bbc eddf d9bc c647 acbd
00000050: d2c5 d4bd c9d8 353d f923 db3d 041b 1b3d
00000060: 1973 043e b9c8 91bd e46e 26bd cde6 4ebc
00000070: 854b c43d 5c0c 2d3d 3b90 9fbd db50 1c3d
00000080: 9de7 cebb 90a5 5ebe b21f 9dbd fcbf 363d
00000090: 3c55 fdb9 f6d2 adbd 5d83 ffbc 55ae 89bd
000000a0: 5d7f b6bb d8b6 afbd 62f2 133e b853 533d
000000b0: fd73 9f3c a511 873c 8ef4 b5bd e2f0 e83d
000000c0: 48fa babd 43d7 fdbd 6e6c 1ebe bcf4 73bd
000000d0: 1e41 c13c cb87 f13c e61a 763d 2765 113e
000000e0: 4bbc 17be 6f3d 87bb 2666 afbd de58 cfbc
000000f0: 4463 763d ed1d 5cbd 09a5 103d bdb7 fabc
00000100: 5281 b3bc 6f02 38bc 3758 ae3c 0bb4 853d
00000110: cf5b babd 0e3f f2bd 1054 f4bd 1238 ef3d
00000120: 7831 92bc fc2a 263d 038b b0bd dda1 20be
00000130: 4412 d73c bb1a 09be 5d1d c13c 8f23 583d
00000140: dfd2 203d 21b9 5abd 863f 1ebe 81bb 783d
00000150: 933e 06bd 4a79 dcbd 835c fdbd 983e ed3d
00000160: 0b00 08be 30c4 483d fee6 3abd 5bd4 b2bd
00000170: 2915 18bc 4f53 27bd 42f0 f43d b0fe e93d
00000180: b414 bcbc a6c8 e83c 80e4 5cbd 5a3c 6fbd
00000190: 1cf5 ebbd b695 4b3d 597d 7fbd 8f9b 12be
000001a0: bcaf 07bc b70f aa3d 8bd0 f0bd abcc db3d
000001b0: ebec f83c c562 5b3d 4df2 7f3c b583 8ebd
000001c0: 2499 ddbd f18e f13d 214b 123d 5e1a eb3d
000001d0: 5299 133c 70a7 983c 96f1 c33d 27cd 08be
000001e0: a00e e03d c785 283d 72bf 3dbd 0a16 75bd
000001f0: bf7e abbd 9e27 0fbd c7bd babc 32d3 11bd
0.09754882 -0.04809173 -0.08754967 -0.16445999 0.020193838 0.07320517 -0.05676122 -0.097395934
-0.039851498 -0.14127192 0.06530583 0.057261713 -0.14519152 0.013657558 -0.06693328 0.03607659
-0.1555867 -0.013424992 -0.026596034 -0.08412127 -0.10389294 0.044396196 0.107002206 0.03786756
0.12934531 -0.07118363 -0.040633097 -0.012628269 0.09584717 0.042248115 -0.07791182 0.038163047
-0.0063142315 -0.21742845 -0.07672061 0.044616684 -0.00048319425 -0.08487503 -0.031190569 -0.06722704
-0.005569382 -0.085797966 0.1444793 0.051593512 0.019464487 0.016487906 -0.08884536 0.1137407
-0.091297686 -0.123945735 -0.1547105 -0.05955957 0.02359062 0.029483696 0.060084246 0.14198743
-0.14817922 -0.0041271965 -0.08564405 -0.02531093 0.06015326 -0.053739477 0.03531364 -0.030605191
-0.02191225 -0.011231049 0.021282298 0.06528481 -0.09099542 -0.11828433 -0.11930096 0.116806164
-0.017845854 0.040568337 -0.086202644 -0.15686746 0.026253827 -0.13389103 0.023573572 0.052768286
0.039263602 -0.05339921 -0.1545392 0.060725693 -0.03277452 -0.107653216 -0.12371161 0.115842044
-0.13281266 0.049015224 -0.045630448 -0.0873191 -0.009282389 -0.040850934 0.11959888 0.11425531
-0.02295909 0.02841599 -0.053928852 -0.058407165 -0.1152136 0.049703322 -0.0623754 -0.14317153
-0.008281644 0.083037786 -0.117585264 0.10732397 0.030386409 0.05356099 0.015621734 -0.06958715
-0.10820225 0.11794842 0.03571618 0.114796385 0.009008722 0.018634528 0.09567563 -0.1335951
0.109402895 0.041143205 -0.046325155 -0.05983547 -0.08373784 -0.03494989 -0.022795571 -0.035601802

action_layer.4.bias f4 [2]
00000000: 0e11 27be 5fb1 ca3c
-0.163151 0.02474278

value_layer.0.weight f4 [64, 2]
00000000: 10bc d3bb 170a 84be cd0f a23c 0289 433f
00000010: 97de aabd cbee 6dbf 4b16 f0bd 3161 453f
00000020: f11f 9b3e 70c1 9c3d 9823 a93e 5a41 733d
00000030: c3f3 423d fd64 e7be e561 0dbf 5252 48be
00000040: 24fc 8a3e 46d4 a53d 9e75 cabd 8baa 243f
00000050: 6f4b 18be 9fa6 87bf 8132 b1be 36b4 de3e
00000060: e91c eb3d 4902 983e a858 31be 8187 193f
00000070: b95c 663e bc6f 0a3f f322 b73e 34c2 0e3e
00000080: 892e 8abe 9fb7 cebe 0059 61bd cca8 ed3d
00000090: 8bb4 ca3d 0481 6c3f 8f1d f4be 7582 223e
000000a0: 7954 6fbe 2079 9e3c fd6d 3d3e c951 babe
000000b0: 7bf8 9cbe f536 bd3e 59a9 983e 5721 113f
000000c0: 00c1 9abb 05ec 043f f6a8 e63e c0ac a33e
000000d0: e8ec 3b3f 8fb1 c1be 3a21 c0be 171a 7fbf
000000e0: d684 783d e2a5 423f e27f 423e 37a2 c0be
000000f0: 71c1 373e 1e36 dbbe 3322 0f3e b2ae 08bf
00000100: e4b6 a03e 7939 5cbf 9102 863e 208f 353f
00000110: 32fc a5be 02c9 1ebf 0a4f eb3e bae1 68bd
00000120: c6ad f13c 4b38 d43e 377f 7bbd 3506 98be
00000130: ff1f 3bbe 15fc 15be cf4d c7bd 577c 2e3f
00000140: 0915 9abe e75b 0fbe 10f9 853e 760f debd
00000150: c60f 33be d4e5 c6be 123b a1bd 00c5 61bf
00000160: be58 34bd f493 38bf 378b ebbe c56c 79be
00000170: 7a04 bb3e d812 7dbf 61b7 103e eedd a23d
00000180: d832 33bf 343b b93e 8c7f 6b3e 2b12 5d3e
00000190: 9c99 efbc 0ba1 7dbf 4445 f83d 3b34 3fbf
000001a0: 1e4c 92bd 7b9f 003f a252 7b3e ea77 a9bd
000001b0: 510e ab3e 36ec 96be 642a 0d3d 5486 193f
000001c0: 2b93 cdbd b2e4 febe ca34 de3e b621 0f3e
000001d0: 1f09 b7bd bcdb a4be d4b1 eabe f490 293d
000001e0: 39b0 7b3d bfb2 f43e 0cae b93d 4b1a cd3e
000001f0: 4e07 d2bd 9366 f83d 610c ca3c bbe7 89be
-0.006461628 -0.25788948 0.019782925 0.7638093 -0.08343237 -0.92942494 -0.11723002 0.7710143
0.30297807 0.07654083 0.33034968 0.059388496 0.04759575 -0.45194235 -0.552275 -0.19562653
0.27145493 0.080971286 -0.09885715 0.6432273 -0.14872526 -1.0597724 -0.34608844 0.43496865
0.114801235 0.29689243 -0.17318976 0.5997239 0.22496308 0.54076743 0.35768852 0.1394127
-0.26988629 -0.40374467 -0.055016518 0.11604461 0.09897717 0.9238436 -0.476788 0.15870078
-0.23372068 0.019344866 0.18498988 -0.36390522 -0.30658326 0.3695599 0.29816702 0.566915
-0.0047227144 0.5192264 0.45050782 0.31967735 0.73408365 -0.3783078 -0.3752535 -0.99649185
0.060673557 0.7603437 0.18994096 -0.3762376 0.17944886 -0.42814726 0.1397789 -0.53391564
0.31389534 -0.86025196 0.26173833 0.70921516 -0.32418972 -0.62025464 0.4595874 -0.056855895
0.029501807 0.41449198 -0.06140062 -0.29692236 -0.18273924 -0.14646943 -0.09731638 0.6815848
-0.30094174 -0.13999902 0.26166582 -0.10842793 -0.17486486 -0.3884722 -0.07872595 -0.88191223
-0.044029944 -0.7210076 -0.4600465 -0.24357899 0.36526853 -0.9885688 0.14132454 0.07952486
-0.69999456 0.3617798 0.22997874 0.21588962 -0.029248051 -0.9907386 0.12122586 -0.7468907
-0.071434245 0.5024335 0.2454324 -0.08274825 0.3340936 -0.2947709 0.034464255 0.59970593
-0.10037836 -0.49783856 0.4339965 0.13977703 -0.089372866 -0.32198894 -0.45838797 0.041398004
0.061447356 0.47792622 0.090664 0.40059122 -0.102552995 0.121289395 0.024664106 -0.2693461

value_layer.0.bias f4 [64]
00000000: 3166 40bf e934 ff3e 3b67 e0be 3567 4c3f
00000010: b8af 113f 5533 90bd a404 39bf 84e4 95be
00000020: fb34 c4be b41c 243f 7335 15bf 6488 3e3e
00000030: ff2f 213f 184b 353f 6ed8 023f fc70 963e
00000040: c34e 4c3f 4085 3f3f 6730 623e de48 0a3f
00000050: e1b0 4c3f c6f1 3c3f c60e d83c 8b33 543e
00000060: cc9f 68bf 6084 263e 3f95 5d3b 3b0c 81be
00000070: 0d63 c43e d8aa f9be a163 0dbf 1b85 eabe
00000080: 24f2 b6be 3953 f33e 2c71 753d 7b2d 5abe
00000090: b3d9 21bf 31e1 5f3f 5ffc 6a3f 234b 433f
000000a0: 3cdb 8d3e 4883 5fbf b7ae ecbe f9ff 9bbe
000000b0: b7ef f7be 8502 a43e 515e 76bd 22f1 d13e
000000c0: 916b 1e3e 9d85 c53e 1d72 0bbf 94ff 2cbf
000000d0: c8cc fb3e beb5 bebe 61a0 26bf f8d5 223f
000000e0: c365 283f 422c e0bc 4d18 0cbf 0255 223e
000000f0: 3af9 d6be c980 333f 912d 533f d49e e23e
-0.7515593 0.49845055 -0.4382876 0.7984498 0.5690875 -0.07041041 -0.72272706 -0.29275906
-0.3832167 0.641063 -0.5828468 0.18606716 0.6296386 0.7081771 0.51111495 0.29383075
0.7980768 0.748127 0.22088777 0.54017437 0.79957396 0.73806417 0.026374232 0.20722787
-0.9086883 0.16261435 0.0033810881 -0.25204644 0.3835682 -0.48763156 -0.55230147 -0.45804676
-0.35731614 0.4752443 0.059922382 -0.21306412 -0.6322281 0.8745299 0.9179134 0.76286525
0.27706325 -0.87309694 -0.46227047 -0.3046873 -0.48425075 0.32033172 -0.06014854 0.41004282
0.15470721 0.385785 -0.54471 -0.6757748 0.49179673 -0.37248033 -0.6508847 0.6360774
0.65780276 -0.027364854 -0.5472458 0.1585274 -0.4198702 0.70118386 0.82491404 0.442618

value_layer.2.weight f4 [64, 64]
00000000: 9568 5fbe 610e 863e b18a 243e 3ac2 713c
00000010: bd3a 1d3d 0831 87bd 5788 63bd b223 a5bd
00000020: 863e fdbe e3be 9b3e 2d78 edbd 8086 e03d
00000030: e3b0 de3d a16a be3e d991 ea3c 1e31 c63d
00000040: 836a c13e 41aa 813e edec b93e ba09 a83e
00000050: c4f4 d93e 3c11 d83d 9705 763e f393 c53c
00000060: d475 81be ee69 4f3d 9b28 843c 66d8 10bd
00000070: fec9 b33e 0195 96be 71ce dabe 9daa bebe
00000080: 62c3 b0be f82a 5e3e f241 423d e806 78be
00000090: 373a 7bbe 03ec ab3e 1f36 413e dddc 353d
000000a0: 161f 223e f006 dabe e78b 473d 34da 89bd
000000b0: d04c 0cbd 0686 593e 4ef3 42be 4270 713e
000000c0: 4a82 853c 3168 c0bd 67d4 5bbe 55ff d7bc
000000d0: 8138 943e b2eb e4be 3b54 bbbe 51dc e83d
000000e0: d4da 963e e48c 023e 6f04 9d3b a980 683e
000000f0: 6579 adbe 35c4 c6bc 834e a53e ba77 873e
00000100: 15af 833e 2e25 5cbe 66df c13e 8b96 c3be
00000110: ba1a 56be 8789 bdbe d868 923e 3a23 8a3d
00000120: b26b 48be 6a1c 69be 41dc 9f3e 7e4a 343e
00000130: 6c6b a1be 25f6 93be 30b4 c2be db22 30be
00000140: a284 e4bd ec03 8dbe 5850 efbd 72ff c63c
00000150: 5adc a9be 76c9 93be 0c43 553e 85b6 a8be
00000160: fff8 9a3e c5ba 72be 001c a1bd 871b aa3e
00000170: adae 3cbe 5fcb 9dbd 1d55 f53d bae6 1c3e
00000180: f53e 4f3d f340 b7be 002b 173e b2ac 94bd
00000190: 42cc d53e 30b6 e5be ff12 f5be 8825 90be
000001a0: 52bf 913d c012 dd3e c4b5 b83e d57c d73e
000001b0: a713 e13e f0e4 433e e7c6 7cbc 5d2c 0bbf
000001c0: c6b9 d63d 47cc 99be f349 a43e 814e a43e
000001d0: e024 a0bd d8c9 61be bdb5 2f3e c3fe 08be
000001e0: 76b0 98be f8e5 2bbe 61e2 bc3e 2279 fb3a
000001f0: 8f70 f1bd 30aa 7ebe 9359 15bf 6960 17bd
00000200: 640d 8cbe 01f6 913e 2396 113d addc b23d
00000210: 065c e63d 59c9 bb3d f2ed fabd ce88 253d
00000220: a4c1 87be 1a5a bd3e 15d4 2ebe 1109 943d
00000230: d010 143e 2bd0 613e dc19 813e d0d4 4ebb
00000240: 7e38 b53e 3867 c33e ac84 fc3c ef63 8e3e
00000250: 5ea8 ea3e 4381 673e db80 75bd e797 cc3d
00000260: 6efc 9cbe c9cd ccbc 292d 4bbd 60cb 1cbe
00000270: f946 9d3e 8336 06be fe1e d3be 9a70 67be
00000280: d046 9dbd 4dad 153e 7cf1 ca3d 1794 453d
00000290: 5bcf 87be 0e22 583d e8be bc3e 791a 203c
000002a0: def3 4d3e 4cc7 c5be 4ef0 14bd 9d3f b9bd
000002b0: 563f c7bd 154f f23d 642f 64be cc88 a93d
000002c0: f849 203d 4997 093e 63ea 22be 3f25 10bd
000002d0: 1655 a03e 004e 34bd 8080 9dbe fd6d 4b3e
000002e0: ce8f 9f3e 1135 753d 6f1e e1bd 0460 ed3d
000002f0: 6a85 26be 51ed d03d ac1f 9f3e 92cc a03e
00000300: a167 56bd 3885 503c 653e 8bbd 4a44 853d
00000310: 2723 83bd a8b8 17bd 324f a93d ed44 0a3e
00000320: 3b5b 89be 1442 8cbd e9f0 333e 3d9e 6c3e
00000330: c7d1 a3bd 030c 4f3d 693f 7cbd b437 3dbe
00000340: ac27 723e 5237 373d d7e3 d3bd 8111 2c3d
00000350: ac62 193e 8b98 12bd 8851 313e 9cef 8cbe
00000360: c80b 6ebb 6c79 aebd 18c2 3cbe d53b 393e
00000370: 0170 b53d 539a 30be 1f06 ce3d b963 353d
00000380: 2ccd 2a3d 0177 b8bd 9c7a b93c 5379 61be
00000390: bdcf 3cbd 69a9 bcbc e7f1 9c3d 2f90 e7bc
000003a0: fc4b 743e 1a53 72be bd02 c23d b1bc 39bc
000003b0: a84d bd3d 6879 a73e cfbd b73c 175c 29be
000003c0: 4e10 fb3d 352b 34be 2602 a5bd 7b9c adbd
000003d0: a0d5 183e 4fe3 2fbe 498b c8bd 9d91 77bd
000003e0: 9b51 d83d e3d3 43bd 636d d23d cec4 f73d
000003f0: dd48 90bd 0549 213d 4ce1 a93d b041 cb3c
-0.21817239 0.26182845 0.16068532 0.01475578 0.038386095 -0.06601149 -0.055549946 -0.08063449
-0.49461764 0.30419073 -0.11595187 0.10963154 0.10873582 0.37190726 0.028633999 0.09677337
0.37776574 0.25325206 0.36313573 0.3281992 0.42569554 0.10550162 0.2402557 0.0241184
-0.25285208 0.05063813 0.016132643 -0.035362624 0.35115045 -0.29410556 -0.42735627 -0.37239543
-0.34524065 0.21696079 0.04742617 -0.24221385 -0.24533926 0.335785 0.18868302 0.044400085
0.15832171 -0.42583418 0.048717406 -0.06731072 -0.03425294 0.21242532 -0.19038126 0.23577979
0.016297478 -0.09394873 -0.21467744 -0.026366869 0.2894936 -0.4471107 -0.365877 0.11370147
0.29463828 0.12749058 0.0047917883 0.2270533 -0.3388168 -0.02426348 0.32286462 0.26458532
0.25719514 -0.21498558 0.37865752 -0.38200793 -0.20908633 -0.37018988 0.28595614 0.06745
-0.19572333 -0.22764745 0.31222728 0.17606542 -0.3152727 -0.2889873 -0.38028097 -0.17200796
-0.1115811 -0.27542055 -0.11685246 0.024291728 -0.33175927 -0.2886464 0.20826358 -0.3295175
0.30268094 -0.2370406 -0.07866669 0.33224127 -0.18426009 -0.077048056 0.11979125 0.1532239
0.05059715 -0.3579174 0.14762497 -0.072595015 0.417574 -0.4486556 -0.47866055 -0.28153634
0.071165696 0.43178368 0.36076176 0.42087427 0.43960306 0.19130301 -0.015428281 -0.5436457
0.10484652 -0.30038664 0.3208767 0.32091144 -0.07819533 -0.22049654 0.17159171 -0.13378434
-0.2982213 -0.16786945 0.36891463 0.0019185881 -0.11789047 -0.24869609 -0.58339804 -0.03695718
-0.27353966 0.28508 0.035543572 0.08733497 0.11248021 0.091692634 -0.12252416 0.04041367
-0.26514924 0.36982805 -0.1707309 0.07228292 0.14459538 0.22052066 0.25215042 -0.0031559952
0.35394663 0.38164687 0.030824982 0.27810618 0.4583158 0.22607903 -0.05993734 0.099899106
-0.3066134 -0.02500047 -0.049603615 -0.15311956 0.3071821 -0.13106732 -0.41234583 -0.22601548
-0.07679522 0.1461689 0.09909341 0.048236933 -0.26525387 0.052766852 0.368644 0.009771937
0.20112559 -0.38628614 -0.036361985 -0.090453364 -0.09728877 0.1183149 -0.22283703 0.08278045
0.039133042 0.13436617 -0.15909724 -0.03519177 0.31314915 -0.0440197 -0.307621 0.19866176
0.31164402 0.05986506 -0.10992133 0.11590579 -0.16261831 0.102015145 0.3107885 0.31406075
-0.052344922 0.012727074 -0.0679901 0.06507166 -0.06403189 -0.037041336 0.082670584 0.13502856
-0.26827416 -0.06848541 0.17572369 0.23107238 -0.07998996 0.050548565 -0.06158391 -0.1847828
0.23647946 0.044730492 -0.103461914 0.04200888 0.14979047 -0.035790008 0.17316258 -0.27526557
-0.003632294 -0.08519253 -0.18433416 0.1808923 0.08859254 -0.1724637 0.10059761 0.044284556
0.041699573 -0.09007073 0.022641473 -0.22018938 -0.046096552 -0.02303 0.07663327 -0.028266994
0.2385711 -0.23664513 0.094731785 -0.011336491 0.092433274 0.32709813 0.022429375 -0.16539036
0.12258969 -0.17594607 -0.080570504 -0.08477112 0.14925241 -0.17176555 -0.097921915 -0.060441602
0.1056244 -0.047809493 0.1027477 0.120980844 -0.070451476 0.039376277 0.08294925 0.024811596

value_layer.2.bias f4 [64]
00000000: b05a 6f3e 27a8 99be 75e1 123e 8090 53be
00000010: ee1e 543d cb5a 2b3e 00c6 47be 8501 40be
00000020: e19f 55be 568f 06be f6f5 dbbd 6657 2abe
00000030: 3a22 073e 4b39 89bb 197a 58be 27f6 253e
00000040: 333d 8a3e e460 dfbd a968 76be 96c5 a83e
00000050: 6a74 edbd f932 b03d e443 62ba 3cbd 203e
00000060: 655d 703e 93ba 743e 6c5c 10be 7af2 b8bc
00000070: 48f2 89bc 95be 5e3c 8bc4 263e 3e9e 253e
00000080: 080a 423e 9ade 5f3d 311b 663e f19a 0f3e
00000090: ceb3 23be 2be2 4fbd 63ee f7bd bc56 823e
000000a0: e571 37be 5f3b e43d 0b07 773e 0196 91bd
000000b0: 94ba 9a3d 12d4 f1bd 3d46 63bc af59 3d3d
000000c0: 0000 8cbe 7bda 00be 5af3 1a3e c279 803d
000000d0: 3679 30bd 46b0 05be 72f1 ffbd 8505 4abe
000000e0: 871a 12be de0e 83bd f2cc c73d f813 243b
000000f0: 1106 8b3d a560 18bc 9364 43be acbc 65bc
0.23374438 -0.30011103 0.14343818 -0.20660591 0.05178731 0.16733854 -0.19509125 -0.1875058
-0.2086177 -0.13140616 -0.10740273 -0.16634902 0.1319665 -0.004187738 -0.21140327 0.16207181
0.26999816 -0.10907152 -0.24063362 0.32963246 -0.1159447 0.08603472 -0.00086313323 0.15697187
0.23473127 0.23899297 -0.14097756 -0.02257656 -0.016839162 0.013595243 0.16285913 0.16173646
0.18949139 0.05465565 0.2247131 0.14023949 -0.15986559 -0.0507528 -0.121060155 0.25456798
-0.17914541 0.11144137 0.2412378 -0.07108689 0.07555118 -0.11808027 -0.013871727 0.046228107
-0.2734375 -0.12583344 0.15131894 0.062732235 -0.043084346 -0.13055524 -0.12497224 -0.19728668
-0.14267932 -0.0639932 0.09755887 0.0025036316 0.067882665 -0.009300386 -0.19081335 -0.014022034

value_layer.4.weight f4 [1, 64]
00000000: 269d 71be 2b81 113e 853f 0ebe 50f3 bbbd
00000010: 5381 ae3e a58e a5be e9d4 8f3e da65 74be
00000020: 0853 1e3d ead7 0fbe 2cfb b2bd 81d7 24be
00000030: 6577 4bbe adad 5e3d 515b 42bb 4319 b93d
00000040: 2ea6 b13d 2a31 5dbe a7eb 6dbe b89b 32bc
00000050: 296f 0a3e 92db 793c d4ff 1ebe cedc 813d
00000060: fa78 04bd 7f5c b03d e8db ed3d 18e8 ec3d
00000070: f42f 93be e387 873e 6de7 813a d44c cdbe
00000080: 81f8 65bd 2727 c63d 3242 173e 9803 1a3c
00000090: 93d3 573e 2645 d2bd e613 54be 1ded 10be
000000a0: 8d4b 403e 977f 013e ddf3 7b3d 11ee 8d3e
000000b0: 67a6 35be b570 c4bc 9726 04be 559f 523e
000000c0: 5fcb 003e 0a22 7b3e c77a cf3d fb96 dc3c
000000d0: a10c af3e 306e 3ebd 6abd 2e3e 1742 0a3e
000000e0: 08ee dd3d 67f5 bebd d322 2bbe 0e38 e7bc
000000f0: 8ad4 7c3d 91c7 fa3c d9ed 92bc 8a73 223e
-0.23595104 0.1420943 -0.13891418 -0.091772676 0.34083042 -0.32335392 0.28092125 -0.23866978
0.038653404 -0.14047208 -0.087393135 -0.16097833 -0.19869764 0.05436485 -0.002965648 0.090380214
0.086742744 -0.21600786 -0.23234425 -0.010901384 0.13518967 0.015250104 -0.15527278 0.06340943
-0.032341935 0.08611392 0.116142094 0.11567706 -0.28747523 0.2647086 0.0009910889 -0.40097678
-0.056145195 0.096754365 0.14771345 0.009400271 0.21076803 -0.10267095 -0.20710716 -0.14152952
0.1877882 0.12646328 0.061511863 0.27720693 -0.17739259 -0.023979524 -0.12905346 0.20568593
0.1257758 0.24524704 0.1013084 0.026927462 0.34189323 -0.0464918 0.17064443 0.13501774
0.108364165 -0.093241505 -0.16712503 -0.028224971 0.06172613 0.030612739 -0.01793568 0.15864387
