flappybird-ppo/solution/PPO_FlappyBird-v0-eps0.5.pth (torch, 39361 bytes, 11 tensors)

action_layer.0.weight f4 [64, 2]
0	0x3ee50b52	0.447352
1	0x3f058804	0.5216067
2	0xbdfe291f	-0.12410187
3	0x3f2fd5e7	0.68685764
4	0xbe49f681	-0.1972294
5	0x3da279e0	0.07933402
6	0xbe9b5a00	-0.30342102
7	0x3ed9a561	0.42508987
8	0x3f1a13e2	0.6018659
9	0xbf051162	-0.5197965
10	0x3f0d82a9	0.55277497
11	0x3daf90f5	0.0857257
12	0x3ede0479	0.43362787
13	0x3cd70278	0.026246294
14	0x3e902607	0.28154013
15	0xbdd97886	-0.10618691
16	0x3f055d69	0.5209566
17	0x3dc2503d	0.094879605
18	0xbe925fcb	-0.2858871
19	0x3e63c2dd	0.22242303
20	0xbe9d9ce4	-0.3078376
21	0xbd89882b	-0.06715425
22	0xbe535143	-0.20636468
23	0x3f0304aa	0.5117899
24	0xbf08b375	-0.5339883
25	0xbe9c2b47	-0.30501768
26	0xbd94c566	-0.07264213
27	0xbe850808	-0.2598269
28	0x3be2fd39	0.006927159
29	0xbf3b0ca5	-0.7306617
30	0x3f20266b	0.6255862
31	0xbf1aff5f	-0.60545915
32	0x3efe19f2	0.4962917
33	0x3d8c5beb	0.068534695
34	0xbe423ebb	-0.18969242
35	0x3ebcdd7e	0.36887735
36	0x3d66bfe8	0.05633536
37	0x3ef00826	0.46881217
38	0xbc3c837a	-0.011505956
39	0xbead7bfc	-0.33883655
40	0x3dedceab	0.116116844
41	0xbe805da1	-0.25071433
42	0x3e9dfa3d	0.3085498
43	0x3f21f5c0	0.6326561
44	0x3ec8f3df	0.3924856
45	0xbea621c5	-0.3244764
46	0x3ea276f5	0.31731382
47	0x3dcbc91e	0.099504694
48	0x3e91a410	0.28445482
49	0xbef0bdc4	-0.4701978
50	0xbf2634f5	-0.64924556
51	0xbe50e1df	-0.20398663
52	0xbf0a8c2d	-0.5412014
53	0x3f113fc7	0.5673794
54	0x3e73b0c9	0.23797907
55	0x3ea5954e	0.32340473
56	0x3e0050a2	0.12530759
57	0xbd8e559c	-0.069499224
58	0x3ef38c94	0.4756819
59	0xbf124e65	-0.5715087
60	0xbc6dc027	-0.014511145
61	0xbf050ae6	-0.51969755
62	0x3e5ae1ba	0.2137517
63	0xbe6b0834	-0.22952348
64	0x3e1c2d7c	0.15251726
65	0xbe45ad8c	-0.19304484
66	0x3efa02f9	0.48830393
67	0xbefa7320	-0.48915958
68	0xbeb45a5f	-0.35225198
69	0xbebaebcc	-0.36508024
70	0x3f176aee	0.59147537
71	0x3e562324	0.20911843
72	0x3f161e28	0.58639765
73	0xbf2ab3d9	-0.66680676
74	0xbf23177e	-0.6370772
75	0xbf02fb94	-0.5116513
76	0xbec3e4b9	-0.3826044
77	0x3eb882d8	0.36037326
78	0x3e53c911	0.2068217
79	0x3f039723	0.5140249
80	0xbeb0337e	-0.34414285
81	0xbeea5cca	-0.45773917
82	0x3ea7d1f7	0.32777378
83	0xbe8fdfc3	-0.28100404
84	0x3eb5c928	0.35505033
85	0xbe35ff81	-0.17773248
86	0x3eb33a6e	0.35005516
87	0xbf17a6f2	-0.59239113
88	0xbe9d23c5	-0.30691352
89	0x3e439e2a	0.19103304
90	0x3e03af30	0.12859797
91	0xbe0fead6	-0.14054427
92	0x3ebe3526	0.37149924
93	0x3ee27f77	0.44237873
94	0xbee183c1	-0.44045833
95	0xbe9f11cc	-0.31068265
96	0x3f1e3bfe	0.6181029
97	0xbe80bf10	-0.2514577
98	0xbe59cda9	-0.2126986
99	0xbf271d8b	-0.65279454
100	0xbecf2bb1	-0.4046302
101	0x3e3170c7	0.17328177
102	0xbd4d9ec4	-0.05020024
103	0xbef646db	-0.48100933
104	0xbd5bafdb	-0.053634506
105	0xbef3d7e7	-0.47625658
106	0xbf0add1d	-0.5424364
107	0xbeb31c92	-0.34982735
108	0xbf0717b4	-0.52770543
109	0xbec5df76	-0.3864705
110	0x3f231e4a	0.6371809
111	0x3d6b3635	0.057424743
112	0x3d9b6fdd	0.075896956
113	0xbf3d0b55	-0.73845416
114	0xbee215d3	-0.44157276
115	0xbe518332	-0.20460203
116	0x3be33b36	0.0069345487
117	0xbf2c73af	-0.6736402
118	0xbe8fb686	-0.28068942
119	0xbecb5364	-0.3971206
120	0x3d367e87	0.04455426
121	0xbe63c0e9	-0.22241558
122	0xbd15dcb0	-0.036587417
123	0xbee313ec	-0.44351137
124	0xbee809e7	-0.45320055
125	0xbeca5ddb	-0.3952473
126	0xbe561a14	-0.20908386
127	0xbf0a519e	-0.5403079

action_layer.0.bias f4 [64]
0	0x3f03b062	0.51441014
1	0xbdcbb43e	-0.09946488
2	0x3f0f7c29	0.5604883
3	0x3e845abc	0.25850475
4	0xbf20c408	-0.6279912
5	0x3edf3f81	0.43603137
6	0xbe8cbae1	-0.27486327
7	0xbea663d3	-0.32498035
8	0xbf1e7266	-0.6189331
9	0xbf2a298f	-0.66469663
10	0x3e6daf23	0.2321134
11	0xbdb0e011	-0.08636487
12	0x3e9e7c36	0.3095414
13	0xbee493d2	-0.44644028
14	0x3ef64cee	0.48105568
15	0xbf0abaa0	-0.5419102
16	0xbe32bbae	-0.17454407
17	0x3e225b32	0.15855101
18	0x3e97a150	0.2961526
19	0x3ef2c27b	0.47414002
20	0x3f13c892	0.5772792
21	0xbf0de1b1	-0.554225
22	0x3e1c666d	0.15273447
23	0xbec2cdd5	-0.38047662
24	0xbe092f44	-0.13396937
25	0xbeef382b	-0.4672254
26	0x3f258227	0.6465172
27	0xbef8c899	-0.48590544
28	0x3e96bf44	0.294428
29	0x3e2d8b2b	0.1694762
30	0x3e32dc75	0.1746691
31	0xbec328d6	-0.38117093
32	0x3f138bd6	0.5763525
33	0x3d883394	0.06650463
34	0x3e217e2d	0.15770788
35	0xbf2bc9a8	-0.6710458
36	0x3e583a05	0.21115883
37	0xbd56b20d	-0.052415896
38	0xbe6e40e1	-0.23266937
39	0x3f115463	0.5676939
40	0x3e4444ab	0.1916682
41	0xbeda5f13	-0.4265066
42	0xbed11fe2	-0.40844637
43	0xbdbbcb40	-0.09169626
44	0x3ed784ca	0.42093498
45	0xbe3eae9b	-0.18621294
46	0xbee7eb2c	-0.4529661
47	0xbe2f6850	-0.17129636
48	0xbf102580	-0.5630722
49	0x3e922469	0.28543404
50	0x3f0be786	0.5465015
51	0xbf1d0802	-0.61340344
52	0x3dd8917c	0.10574624
53	0x3ed6fa59	0.41987875
54	0x3e54945e	0.20759723
55	0xbea6c1c7	-0.32569715
56	0x3e799385	0.2437268
57	0x3ed0b794	0.4076506
58	0x3e3b7dd7	0.18309723
59	0xbdb59b5f	-0.08867525
60	0xbe12f3c7	-0.14350806
61	0x3dc6dc36	0.09709971
62	0xbdb290c5	-0.08719019
63	0xbe2d0f9a	-0.16900483

action_layer.2.weight f4 [64, 64]
0	0x3d51df6d	0.051238466
1	0x3dee7a01	0.11644364
2	0xbcd44359	-0.02591102
3	0xbd0e8045	-0.034790296
4	0x3bc62b8a	0.0060476707
5	0xbd10e454	-0.035374
6	0x3bf89d86	0.0075871376
7	0x3d0f512d	0.034989525
8	0xbdf219ca	-0.11821325
9	0xbc90ae01	-0.017661097
10	0x3e003163	0.1251884
11	0x3d8f8a3a	0.070087865
12	0x3caa74e7	0.020807697
13	0xbd4381b9	-0.047731135
14	0xbdcdbf0b	-0.10046204
15	0xbdead4fd	-0.114664055
16	0xbd881c40	-0.06646013
17	0x3d0b1f05	0.03396513
18	0x3d4ee6a6	0.050512932
19	0x3d0b6db3	0.034040164
20	0xbe0d669a	-0.1380867
21	0xbda4dd56	-0.08050029
22	0xbd39094c	-0.04517488
23	0x3de8ff6f	0.11376845
24	0xba42f22a	-0.0007436598
25	0xbb79e032	-0.0038128016
26	0x3d012aee	0.03153508
27	0xbd13c142	-0.036072977
28	0xbddc56c7	-0.10758739
29	0x3d87e2c7	0.06635051
30	0xbd952c12	-0.07283796
31	0xbb04c555	-0.002025922
32	0xbe1a4583	-0.15065579
33	0x3d73d6e9	0.059531126
34	0x3df8796b	0.12132534
35	0x3d0089f7	0.031381574
36	0xbde64ef0	-0.11245525
37	0xbdc11f72	-0.09429826
38	0xbd9a0185	-0.07519821
39	0x3d8085b0	0.06275499
40	0x3db7c3de	0.089729056
41	0x3e0760f0	0.13220572
42	0x3d877bf3	0.06615438
43	0x3c849977	0.016186459
44	0xbcb7c94a	-0.02243485
45	0xbd81c52a	-0.06336434
46	0xbe04b4a7	-0.12959538
47	0xbdb30442	-0.087410465
48	0x3d2a21e4	0.041536227
49	0xbcead2f9	-0.028665053
50	0xbd3f8f92	-0.04676778
51	0xbd3103d3	-0.043216538
52	0xbc1e5000	-0.009662628
53	0xbd7f858b	-0.062383216
54	0xbd5de17c	-0.054170117
55	0x3c666564	0.014062259
56	0xbd510fb9	-0.051040385
57	0x3dc993fa	0.098426774
58	0xbd5b1f21	-0.053496484
59	0xbd7e415b	-0.062074047
60	0xba14a596	-0.0005670426
61	0xbd0e7777	-0.0347819
62	0xbc165520	-0.009175569
63	0xbdb5e51f	-0.08881592
64	0x3d844f8d	0.064604856
65	0xbdadc643	-0.08485081
66	0x3d3b0a4e	0.045664124
67	0x3d6c6b35	0.057719428
68	0x3dc52319	0.09625835
69	0xbdd00005	-0.10156254
70	0x3db3c070	0.08776939
71	0xbd60bea0	-0.054869294
72	0x3d3b63c3	0.045749437
73	0x3df9e627	0.12202101
74	0xbc4f943b	-0.012669618
75	0xbb0be783	-0.0021347709
76	0xbcc46291	-0.023972781
77	0xbdcd1248	-0.100132525
78	0x3d6e3e45	0.058164854
79	0xbdfb204a	-0.12262018
80	0x3d97578e	0.073897466
81	0x3d9e591e	0.077318415
82	0x3de9e463	0.114205144
83	0xbd09b489	-0.033619437
84	0xbdd9ddc3	-0.10638001
85	0x3d2a6a5e	0.041605346
86	0x3d833f98	0.06408614
87	0xbdf193b7	-0.117957525
88	0xbcc881ab	-0.024475893
89	0xbd8e63ac	-0.06952605
90	0xbcb9ae4b	-0.022666117
91	0xbd41c94c	-0.047311112
92	0xbd5b748e	-0.053577952
93	0xbd31d0ab	-0.043411892
94	0xbde778a5	-0.11302308
95	0x3ded05bb	0.115733586
96	0x3dcc4d44	0.09975675
97	0xbcc28f76	-0.023750048
98	0xbc350c43	-0.011050287
99	0xbd5e26ce	-0.054236226
100	0xbdf1ccf8	-0.11806673
101	0xbdeecbb5	-0.11659948
102	0x3d4b3f27	0.049620774
103	0xbd95921e	-0.0730326
104	0xbd9ca816	-0.07649247
105	0x3ab339b5	0.0013673814
106	0xbd09e5b9	-0.033666346
107	0xbd2d540a	-0.042316474
108	0xbc4fddeb	-0.012687187
109	0xbc833d8a	-0.016020555
110	0xbd3f1e7e	-0.04665994
111	0xbd66b2ba	-0.05632279
112	0xbdd4de56	-0.1039397
113	0x3dd3cedd	0.103421904
114	0xbd7e9554	-0.06215413
115	0x3d1ef818	0.03881082
116	0xbcfc2b47	-0.030782355
117	0x3c621bd8	0.013800584
118	0x3df5a698	0.11994666
119	0x3d623c7e	0.05523347
120	0xbdde9318	-0.108679
121	0x3d5b337a	0.05351589
122	0x3dfb6a36	0.122761175
123	0x3d18cc03	0.037303936
124	0x3dc407f5	0.0957183
125	0x3e09b9e2	0.13449815
126	0xbc6cc640	-0.014451563
127	0x3cf7a239	0.030228721
128	0xbdd23f30	-0.10265958
129	0xbc862c15	-0.016378442
130	0x3d87a08b	0.06622418
131	0x3d901cf0	0.070367694
132	0xbda33404	-0.079689056
133	0xbdeecbf2	-0.11659993
134	0xbdc3fd4b	-0.09569796
135	0xbdf459a1	-0.11931158
136	0xbdd6c8f0	-0.104875445
137	0xbc819f02	-0.015822891
138	0x3dc9fd9a	0.09862824
139	0x3ce671ee	0.028130498
140	0xbda1d9b2	-0.0790285
141	0xbdb1aef2	-0.08675946
142	0x3d4fde2a	0.05074898
143	0xbdce08c7	-0.10060268
144	0xbcef5aa7	-0.029218031
145	0x3d3a951d	0.04555236
146	0xbd905b72	-0.07048692
147	0xbcd9c896	-0.026584905
148	0xbcc78b77	-0.024358494
149	0xbc12010a	-0.008911381
150	0xbda29e82	-0.07940389
151	0xbdd41ff8	-0.1035766
152	0xbdd66736	-0.10468905
153	0xbd5106c0	-0.051031828
154	0x3dde38af	0.10850655
155	0xbd139e80	-0.03603983
156	0xbdc4eff3	-0.09616079
157	0x3c88916e	0.016670909
158	0x3d0b8ea2	0.034071572
159	0x3dbb61c7	0.09149509
160	0x3da36709	0.07978637
161	0x3d62b7b4	0.055350974
162	0xbde2c4ef	-0.11072718
163	0x39c10ad6	0.00036819902
164	0x3d76f70d	0.0602942
165	0x3b947734	0.0045308117
166	0xbd780ea7	-0.06056085
167	0x3dd5edad	0.10445724
168	0xbd02c9e2	-0.03193081
169	0xbd67d23a	-0.056596972
170	0xbdd66e0d	-0.10470209
171	0xbb92d7a1	-0.0044812714
172	0x3d061d4c	0.032742783
173	0x3d43ed86	0.047833942
174	0x3c5358fb	0.012899633
175	0xbda532f7	-0.080663614
176	0xbe026a6c	-0.12735909
177	0x3becc916	0.0072261197
178	0x3dc88aeb	0.097921215
179	0x3db39544	0.087687045
180	0xbd650aad	-0.055918384
181	0xbb228459	-0.0024798124
182	0xbda100ae	-0.07861458
183	0xbd9562a6	-0.07294206
184	0x3c79c956	0.015245756
185	0x3da4f662	0.08054806
186	0x3dd10682	0.102063194
187	0xbdcb3da9	-0.0992387
188	0x3dc742bc	0.097295254
189	0xbd98d38f	-0.074622266
190	0x3d808ca8	0.06276828
191	0x3df76f58	0.12081784
192	0x3acf6da2	0.001582552
193	0x3de8035d	0.113287665
194	0xbdbfaef3	-0.09359541
195	0xbd4230ce	-0.047409825
196	0x3d7d4b3e	0.061839335
197	0xbce01b9e	-0.027356919
198	0xbce39260	-0.027779758
199	0xbd57dda4	-0.052701607
200	0x3d9da3e1	0.07697273
201	0x3d7dd05e	0.061966293
202	0x3d2a5e1a	0.04159365
203	0xbd87c2a8	-0.066289246
204	0xbdc9dc0d	-0.098564245
205	0x3c61ffbe	0.013793884
206	0x3d10ce1b	0.035352807
207	0xbd85fd04	-0.065423995
208	0xbd1825ae	-0.03714531
209	0x3dc143fa	0.094367936
210	0x3c1e7ae9	0.009672859
211	0x3bc42ca0	0.005986765
212	0xbd01bff3	-0.031677198
213	0xbe05dff6	-0.13073716
214	0xbdf3680e	-0.11885081
215	0xbd809357	-0.06278103
216	0xbd8f1294	-0.06985965
217	0x3d206657	0.0391601
218	0xbcce2168	-0.025162414
219	0xbd79a97e	-0.060952656
220	0x3df01f86	0.117247626
221	0x3d2cec65	0.04221763
222	0x3dad4215	0.0845987
223	0xbd8fe675	-0.07026378
224	0xbd51092e	-0.051034145
225	0x3d3725d9	0.04471383
226	0xbda5a033	-0.08087196
227	0xbdb10a81	-0.086445816
228	0xbbd49d73	-0.006488496
229	0xbd3660a0	-0.044525743
230	0xbdbc7ea9	-0.09203846
231	0x3d95df7a	0.073180154
232	0x3dd4418c	0.103640646
233	0x3c4ddc01	0.01256466
234	0xbcd7dca7	-0.026350332
235	0xbdf0a267	-0.11749726
236	0xbd06b69d	-0.032888997
237	0x3cfc415c	0.030792885
238	0x3d6111d9	0.05494866
239	0xbc621d49	-0.013800927
240	0xbd5d4aa7	-0.054026272
241	0x3d9bc7a7	0.0760644
242	0xbdb39a0d	-0.08769617
243	0x3da0d778	0.078535974
244	0xbd4b20a1	-0.049591664
245	0x3ba48ef3	0.0050219237
246	0xbcb7619d	-0.022385413
247	0x3c39ca62	0.011339756
248	0xbd1d3795	-0.038383085
249	0x3dbff8a3	0.093735956
250	0xbbd9708c	-0.006635731
251	0x3dcb93c0	0.099402905
252	0x3de62364	0.11237219
253	0xbd833e70	-0.064083934
254	0xbdb75e24	-0.08953503
255	0x3dd085bc	0.10181758

action_layer.2.bias f4 [64]
0	0x3adf4fcd	0.0017037332
1	0x3d5283e7	0.051395323
2	0xbd69499e	-0.056954972
3	0x3da99a58	0.08281392
4	0x3c2a15eb	0.010381202
5	0xbcf3b409	-0.029748933
6	0x3d0a6e9a	0.033796884
7	0xbdc2d8f0	-0.09514034
8	0xbc5c7047	-0.013454503
9	0x3d7cae16	0.06168946
10	0xbddbf479	-0.10739989
11	0xbd80eec4	-0.06295541
12	0x3d835c8c	0.06414136
13	0x3c2116d5	0.009832104
14	0xbbb897c4	-0.0056333262
15	0x3c9de0f1	0.0192723
16	0xbd781d54	-0.060574844
17	0x3dd024d4	0.101632744
18	0xbc2d7a1e	-0.010588197
19	0xbd02dec2	-0.03195072
20	0x3d80b4a8	0.062844574
21	0xbdd9bef1	-0.10632122
22	0xbcd2a882	-0.025715116
23	0x3d08984b	0.033348363
24	0xbd2d54f7	-0.042317357
25	0x3d98d731	0.074629195
26	0xbd95bc5c	-0.07311317
27	0xbc8bdbb7	-0.017072542
28	0xbd2ea86e	-0.042641096
29	0x3de96958	0.11397046
30	0x3d2161aa	0.03939978
31	0xbdd42f42	-0.10360576
32	0x3d3878ab	0.045036953
33	0xbc23060c	-0.009950172
34	0x3dd13253	0.10214677
35	0x3d5ee85c	0.054420814
36	0xbda75a47	-0.08171516
37	0x3ded047d	0.11573122
38	0xba6a724d	-0.0008943424
39	0xbccc15d6	-0.024912756
40	0x3cde678f	0.02714899
41	0x3deaa918	0.11458033
42	0x3d112343	0.03543402
43	0xbe0fa165	-0.14026411
44	0xbd19fd6e	-0.037595205
45	0x3dce68ac	0.10078558
46	0xbd42a031	-0.04751605
47	0xbda6b2ac	-0.08139548
48	0xbdd72264	-0.10504606
49	0xbd6c72c7	-0.057726648
50	0xbda399a6	-0.079882905
51	0x3bce99f8	0.0063049756
52	0x3d61ce2c	0.05512826
53	0x3de40b2f	0.111349456
54	0x3d9f10bc	0.07766864
55	0xbb0628aa	-0.0020471015
56	0x3cc79fd1	0.024368199
57	0x3da7ca83	0.08192923
58	0xbdbe7121	-0.092989214
59	0x3d67622d	0.056490112
60	0xbdaddfd6	-0.08489959
61	0x3dc6ade2	0.09701134
62	0xbd89ed6c	-0.06734738
63	0x3cb6f3e6	0.022333097

action_layer.4.weight f4 [2, 64]
0	0x3d27aabc	0.04093431
1	0xbd04efb3	-0.032455157
2	0xbd16bf95	-0.0368038
3	0xbd47a8e9	-0.04874507
4	0xbcdb7027	-0.026786877
5	0xbc4027e0	-0.011728257
6	0xbdb6f356	-0.089331314
7	0x3baa1a38	0.005191114
8	0xbcdba78c	-0.026813291
9	0xbd5900ab	-0.052979153
10	0x3b5491c0	0.0032435507
11	0xbd430c5d	-0.047619212
12	0xbd807e38	-0.06274074
13	0xbd85ad9b	-0.06527253
14	0xbcac602a	-0.021041948
15	0x3d34e3a1	0.044162396
16	0xbd833b15	-0.064077534
17	0xbcdb9d51	-0.026808413
18	0xbd9e68ee	-0.077348575
19	0xbc2e726e	-0.010647399
20	0xbd84ec24	-0.06490353
21	0xbcfcea81	-0.030873539
22	0xbc196959	-0.009363496
23	0x3d9ec7c8	0.07752949
24	0x3ba71d66	0.00509994
25	0xbc1a73b0	-0.009426996
26	0xbd26e841	-0.04074884
27	0xbd3fa928	-0.04679218
28	0x3d8b7e61	0.06811214
29	0x3bfcfbc1	0.007720441
30	0x3be09bac	0.006854495
31	0x3d8ca7e3	0.06867959
32	0x3c702450	0.014657095
33	0xbdbe0c02	-0.09279634
34	0xbd8b0bd6	-0.06789367
35	0xbb9bee50	-0.0047586337
36	0xbd76cd70	-0.060254514
37	0x3cbac269	0.02279778
38	0xbd4528b3	-0.048134517
39	0xbdce0077	-0.100586824
40	0x3cb4ac42	0.022054795
41	0xbc8af057	-0.016960306
42	0x3c1959eb	0.009359817
43	0x3dace2f0	0.084417224
44	0x3ce1df03	0.02757216
45	0x3d648d1d	0.05579864
46	0xbd265625	-0.040609498
47	0x3cb286f3	0.021792864
48	0xbdc50be8	-0.096214116
49	0xbb448e62	-0.0029992093
50	0xbdb6a78c	-0.08918676
51	0x3cab9d30	0.020948976
52	0x3c76b53e	0.01505786
53	0x3cf2ba9c	0.029629998
54	0x3d98fb94	0.0746986
55	0x3d20c4ac	0.03925006
56	0xbd1e43ce	-0.038638882
57	0x3c8e042a	0.01733597
58	0xbd8995dd	-0.06718037
59	0xbd9c9aac	-0.07646689
60	0xbc19b036	-0.009380391
61	0xbd274455	-0.04083665
62	0x3bcc82bd	0.006241171
63	0xbd197a43	-0.037470113
64	0x3d0e23da	0.03470216
65	0xbcdc193c	-0.026867501
66	0xbcf15d6c	-0.029463492
67	0xbd4e900d	-0.050430346
68	0xbd344933	-0.04401512
69	0xbd089ae2	-0.033350833
70	0xbdb19fea	-0.08673079
71	0x3c68f74f	0.014219119
72	0xbcfd00c4	-0.030884154
73	0xbd437a63	-0.04772414
74	0xbcc5c216	-0.024140399
75	0xbd54f023	-0.051986825
76	0xbd662f22	-0.056197293
77	0xbd611ed8	-0.054961056
78	0xbcb6d467	-0.022318078
79	0x3d370520	0.044682622
80	0xbd55ff53	-0.05224545
81	0xbd23e7b3	-0.040015887
82	0xbdd48dff	-0.10378646
83	0xbc50de51	-0.012748317
84	0xbd92f8ea	-0.07176383
85	0xbd04a4b1	-0.032383624
86	0xbbf0b6d3	-0.007346013
87	0x3d9c043b	0.076179944
88	0xbc0c5e45	-0.0085673975
89	0xbc50c15d	-0.012741414
90	0xbd3a6da2	-0.04551471
91	0xbd59b917	-0.05315503
92	0x3c972a3b	0.018452754
93	0xbbcf3384	-0.00632328
94	0x3d0eac8d	0.034832526
95	0x3dab7f38	0.083738744
96	0xbd33f024	-0.043930188
97	0xbdc50d0a	-0.09621628
98	0xbd80860f	-0.0627557
99	0xbc13f9f8	-0.009031765
100	0xbd6317c9	-0.055442605
101	0xbd6d7174	-0.057969525
102	0xbd3a164c	-0.04543142
103	0xbde0e4c4	-0.109811336
104	0xbd13120c	-0.035905883
105	0x3c68a80d	0.014200223
106	0x3c8fa3f1	0.017534228
107	0x3d989392	0.07450022
108	0x3cb68208	0.0222788
109	0x3c6979ff	0.014250278
110	0xbd059647	-0.03261402
111	0x3cb72d6d	0.022360528
112	0xbdd3875b	-0.103285514
113	0xbb447b56	-0.002998074
114	0xbcf42eff	-0.029807566
115	0x3d0c714d	0.03428774
116	0x3c8fb335	0.017541507
117	0x3c9774c8	0.018488303
118	0x3da60377	0.081061296
119	0xbcfcc97c	-0.030857794
120	0xb9102bda	-0.00013749246
121	0x3ca137d7	0.019679947
122	0xbd84affb	-0.06478878
123	0xbc0e3442	-0.008679451
124	0xbc68b6fa	-0.014203781
125	0xbd440120	-0.047852635
126	0x3bcdaeb8	0.0062769316
127	0xbceb69d9	-0.028736996

action_layer.4.bias f4 [2]
0	0xbc53ba0d	-0.012922776
1	0xbe007f42	-0.12548545

value_layer.0.weight f4 [64, 2]
0	0x3f129c7e	0.5727004
1	0x3ef5f23b	0.4803637
2	0xbf037b04	-0.5135958
3	0x3dcf6479	0.101265855
4	0x3f018229	0.50589234
5	0xbf27c33d	-0.65532285
6	0xbf2b829b	-0.66996163
7	0x3eb7635a	0.35817987
8	0xbd34b328	-0.04411617
9	0x3e7183ca	0.2358543
10	0xbe922c1d	-0.2854928
11	0x3d896a96	0.06709783
12	0x3f04d730	0.5189085
13	0xbe230d00	-0.15922928
14	0xbe4abe24	-0.19799095
15	0xbf34fb18	-0.7069564
16	0xbe12fbda	-0.14353886
17	0x3ee88e85	0.45421234
18	0xbf3b0db2	-0.7306777
19	0xbd37615d	-0.044770587
20	0x3ef06b5b	0.46956906
21	0xbe32f8d2	-0.1747773
22	0xbe661b9d	-0.22471471
23	0xbe57a4b3	-0.21058922
24	0xbea620ff	-0.3244705
25	0x3db0e719	0.086378284
26	0xbf438f25	-0.76390296
27	0x3e81716d	0.2528185
28	0xbe81f185	-0.25379577
29	0xbdbebf0a	-0.093137816
30	0xbd68f311	-0.05687243
31	0x3ec0295e	0.3753156
32	0xbef67a20	-0.4814005
33	0xbf278066	-0.65430295
34	0xbf022387	-0.5083546
35	0xbf0bcbcf	-0.5460786
36	0xbee001bd	-0.43751326
37	0x3f1083db	0.56451195
38	0xbf1d4b7b	-0.614433
39	0xbec114ed	-0.37711278
40	0xbf252980	-0.6451645
41	0xbebaa21e	-0.3645181
42	0xbd947e9a	-0.0725071
43	0xbedc3f22	-0.43016917
44	0xbc31037d	-0.010804054
45	0x3e72d8bd	0.23715492
46	0xbe06ca49	-0.13163103
47	0x3e83444e	0.2563805
48	0x3e5c3bba	0.21507159
49	0x3f31e03e	0.6948279
50	0xbcbd29ef	-0.023091285
51	0x3f1735f2	0.5906669
52	0x3eff5195	0.4986693
53	0x3eb2ae92	0.34898812
54	0x3edb6325	0.4284908
55	0xbeda942c	-0.4269117
56	0xbf0e1779	-0.55504566
57	0x3e9d502c	0.3072523
58	0x3e8ca550	0.27469873
59	0x3f192dbd	0.59835416
60	0xbe033e41	-0.12816717
61	0xbdc8fa1d	-0.0981333
62	0x3f110a4d	0.5665634
63	0xbb75f107	-0.0037527697
64	0x3f3eeef4	0.74583364
65	0xbeb46733	-0.35234985
66	0xbe8975a3	-0.26847562
67	0x3d80f278	0.06296247
68	0x3ee17490	0.44034243
69	0xbf183311	-0.5945292
70	0xbe3020d7	-0.17200027
71	0x3edffc95	0.43747392
72	0x3e1bda61	0.15220024
73	0x3f05ba17	0.52237076
74	0xbe8eb6bc	-0.2787379
75	0xbee07c34	-0.4384476
76	0xbf02c339	-0.51079136
77	0xbedb90a5	-0.42883793
78	0xbf106e86	-0.56418645
79	0x3eb06ced	0.34458104
80	0x3e60b777	0.21944986
81	0xbee90e53	-0.4551874
82	0x3f35831a	0.7090317
83	0x3e6f7342	0.23383811
84	0x3e97a27f	0.29616162
85	0xbe97daa7	-0.29659006
86	0x3f12233f	0.5708503
87	0xbefd1c02	-0.4943543
88	0x3f17de1f	0.59323305
89	0xbebbbad8	-0.36665988
90	0x3ea72445	0.3264486
91	0xbe8ea6a8	-0.27861524
92	0x3f071f79	0.527824
93	0xbf17f143	-0.5935251
94	0xbe322d8c	-0.17400187
95	0xbe3c777d	-0.18404956
96	0xbed1ced3	-0.40978107
97	0xbebc4140	-0.36768532
98	0xbe735a10	-0.23764825
99	0x3d96bf05	0.07360653
100	0x3f1b6984	0.6070788
101	0xbe210c3a	-0.1572732
102	0x3f483599	0.78206784
103	0xbea196e2	-0.31560427
104	0xbeddc465	-0.433139
105	0xbca4e37f	-0.02012801
106	0xbe30705a	-0.17230359
107	0x3e5fce0d	0.21855946
108	0x3f36f3e0	0.71465874
109	0x3e87e66a	0.2654298
110	0xbf21b298	-0.6316314
111	0xbe48fb90	-0.19627213
112	0xbe3c048e	-0.18361112
113	0xbf1ada87	-0.60489696
114	0x3e3d6962	0.18497232
115	0x3f258853	0.6466114
116	0x3ed0a847	0.40753385
117	0xbbd9b44f	-0.006643809
118	0xbd2fa63d	-0.042883147
119	0xbe9a93e6	-0.30190963
120	0xbdfb7b58	-0.12279385
121	0x3f129e84	0.57273126
122	0xbecaf3fa	-0.39639264
123	0x3db27714	0.087141186
124	0xbf11295b	-0.5670373
125	0xbe776b0c	-0.24161929
126	0x3d3d2be5	0.04618444
127	0xbefd6006	-0.49487323

value_layer.0.bias f4 [64]
0	0x3e0388f5	0.12845214
1	0xbf102afe	-0.563156
2	0xbe953979	-0.2914541
3	0x3ef9d140	0.48792458
4	0x3f328f3e	0.6974982
5	0xbdd1f32d	-0.1025146
6	0xbf0365f7	-0.5132746
7	0xbf234dd4	-0.6379063
8	0xbe0a70c5	-0.1351958
9	0xbe9cdb3e	-0.3063602
10	0x3f178450	0.5918627
11	0xbf049aef	-0.5179891
12	0x3ee3c1ad	0.444837
13	0x3e13804e	0.14404413
14	0xbe4dd20a	-0.20099655
15	0x3f1356e5	0.57554466
16	0x3ed61eaa	0.4182027
17	0xbd27f5b5	-0.04100581
18	0xbee82092	-0.4533735
19	0xbe14880f	-0.14505027
20	0x3e83a3f6	0.2571103
21	0x3f242e32	0.6413299
22	0xbe71c72c	-0.23611134
23	0xbe9a965f	-0.3019285
24	0xbf37ff53	-0.7187397
25	0x3eefd2be	0.4684047
26	0x3f3d10f5	0.73854
27	0x3f0605c8	0.5235257
28	0xbeb98866	-0.36236876
29	0x3f061bea	0.52386343
30	0xbe38a985	-0.18033417
31	0x3ea2117d	0.31653967
32	0x3ec93608	0.39299035
33	0xbf07689b	-0.5289399
34	0x3e2f5be1	0.17124893
35	0x3e85fc28	0.26168942
36	0xbeed5507	-0.46353933
37	0x3f2dcca1	0.67890364
38	0x3f11af35	0.5690797
39	0x3f16910d	0.5881508
40	0xbd02ddbf	-0.031949755
41	0xbec5dedb	-0.38646588
42	0xbed08f62	-0.40734392
43	0x3e6bd9f7	0.23032366
44	0xbe189cf4	-0.14903623
45	0x3f0399c9	0.5140653
46	0x3f118043	0.56836337
47	0x3dcd8720	0.10035539
48	0xbf24a574	-0.6431496
49	0x3e9bd478	0.30435538
50	0x3f151c5b	0.5824639
51	0xbe38eaa9	-0.18058266
52	0xbea49f5a	-0.32152826
53	0xbe0d21b8	-0.13782394
54	0x3da3c487	0.07996469
55	0xbef25394	-0.4732939
56	0x3ed631f7	0.41834995
57	0x3eb856dc	0.36003768
58	0xbe95a71f	-0.29229066
59	0xbe826269	-0.25465706
60	0xbeb552c2	-0.35414702
61	0x3f09d1c5	0.5383571
62	0x3ecb2499	0.3967636
63	0x3e545168	0.20734179

value_layer.2.weight f4 [64, 64]
0	0xbb77e91b	-0.003782815
1	0x3c883555	0.016626993
2	0x3dbabde2	0.091182485
3	0x3d9152f6	0.07095902
4	0xbc1a27f5	-0.009408941
5	0x3d901577	0.07035344
6	0xbdae0043	-0.08496144
7	0xbd61374e	-0.054984383
8	0xbd7ae343	-0.06125189
9	0x3b91acee	0.0044456637
10	0x3c0cac8f	0.008586063
11	0xbde547e8	-0.11195356
12	0x3df5be14	0.11999145
13	0x3e143003	0.1447144
14	0xbddbb48e	-0.107277974
15	0x3dae68ee	0.085161075
16	0xbd1fa092	-0.03897149
17	0xbc1853e8	-0.009297349
18	0x3d8f38ab	0.069932304
19	0x3b5e212b	0.0033894281
20	0x3d949801	0.07255555
21	0xbbf266db	-0.0073975152
22	0x3de717fb	0.11283871
23	0xbd5b950a	-0.05360893
24	0xbc8b04cb	-0.016970059
25	0x3d6fa142	0.058503397
26	0x3dfe43ea	0.12415297
27	0x3b81345d	0.00394301
28	0x3db41291	0.08792604
29	0x3da47403	0.0802994
30	0x3d39282f	0.045204338
31	0xbbbbc04a	-0.0057297098
32	0x3cdd7685	0.027034054
33	0x3dc4a47e	0.09601687
34	0xbd7b5966	-0.061364554
35	0xbc63f31c	-0.013912942
36	0x3d59d395	0.053180296
37	0x3de3eb49	0.111288615
38	0xbd97f858	-0.07420415
39	0x3da157e8	0.07878095
40	0xbe1901b7	-0.1494206
41	0xbdd4a7aa	-0.10383542
42	0x3c3a40a6	0.011367952
43	0x3d3d66e1	0.04624069
44	0xbd66443a	-0.05621741
45	0x3ddf04e0	0.10889602
46	0x3df02cf9	0.11727328
47	0x3e007df5	0.12548049
48	0xbe1be379	-0.15223493
49	0xbbe2d21e	-0.0069220206
50	0x3ca60636	0.020266633
51	0x3d943b2d	0.072378494
52	0xbc97fa4d	-0.01855197
53	0x3d26badf	0.040705558
54	0x3d37b77d	0.044852722
55	0xbdb19e66	-0.0867279
56	0xbd94d8e4	-0.07267931
57	0x3e2cf44f	0.16890071
58	0xbd17cefb	-0.037062626
59	0x3d378018	0.044799894
60	0xbde3d68b	-0.11124905
61	0xbc0e3d91	-0.008681671
62	0x3dfeac52	0.12435211
63	0xbce9f10e	-0.028557327
64	0x3d1bc5ed	0.038030554
65	0xbdea0834	-0.11427346
66	0x3dc7dc17	0.09758776
67	0xbd15985a	-0.036522247
68	0x3d106009	0.035247836
69	0xbd7687f2	-0.06018824
70	0xbdad3540	-0.08457422
71	0xbe162849	-0.14663805
72	0xbdbf8cd9	-0.093530364
73	0xbc5430d4	-0.012951095
74	0xbd6aa4eb	-0.057286184
75	0x3d86944c	0.06571254
76	0x3d01edd5	0.031720955
77	0x3dfef301	0.12448693
78	0xbcb102f2	-0.02160785
79	0x3d84c35c	0.06482574
80	0x3e2b4098	0.1672386
81	0xbd9d1025	-0.07669095
82	0xbd351599	-0.04421005
83	0x3df0f02b	0.117645584
84	0x3bd2dacf	0.0064347754
85	0xbb66fd35	-0.0035246138
86	0x3b06fc3d	0.0020597123
87	0xbd7fdee7	-0.062468436
88	0xbcfdef08	-0.030997768
89	0xbc839dec	-0.016066514
90	0x3d8cb595	0.068705715
91	0xbd18e638	-0.03732893
92	0xbce2663c	-0.02763664
93	0xbc1da796	-0.009622475
94	0x3b9db8e0	0.0048132986
95	0x3d54f885	0.05199482
96	0xbe079232	-0.13239363
97	0xbddf37fe	-0.108993515
98	0xbe0d5d56	-0.13805136
99	0x3db4f493	0.08835711
100	0x3d6110d9	0.054947708
101	0xbd88adc2	-0.06673767
102	0x3d90d803	0.07072451
103	0x3d5a0715	0.05322941
104	0xbdb72d5e	-0.089442
105	0xbbd627d7	-0.006535511
106	0x3d872d78	0.06600469
107	0x3dd48497	0.10376852
108	0x3cf251b5	0.029579977
109	0xbcbda126	-0.02314813
110	0xbda22f8e	-0.079192266
111	0xbc94abea	-0.018148381
112	0xbcd8998b	-0.026440402
113	0x3cb7077e	0.02234244
114	0x3dca32fe	0.09873007
115	0xbe0eeb10	-0.13956857
116	0x3c869839	0.016430007
117	0xbcdd7909	-0.027035253
118	0xbc7386cb	-0.01486368
119	0x3dda7ecd	0.106687166
120	0x3bca6f8a	0.0061778473
121	0x3c4ec651	0.0126205245
122	0xbd934eeb	-0.07192787
123	0xbe21ee5f	-0.15813588
124	0xbdd6eb73	-0.10494127
125	0x3db09f3c	0.086241215
126	0xbd30a9cf	-0.043130692
127	0x3d6b1815	0.057396013
128	0xbd30722d	-0.043077637
129	0x3d852d5f	0.065027945
130	0x3e000f4e	0.12505838
131	0xbc8ee141	-0.017441394
132	0xbc1718ac	-0.009222191
133	0x3da219e3	0.07915094
134	0xb9ad804a	-0.00033092714
135	0x3e1223df	0.14271496
136	0xbe04cce3	-0.12968783
137	0x3ddcb2b2	0.10776271
138	0xbd3ded07	-0.046368625
139	0x3d1112a6	0.035418175
140	0x3ce48db2	0.027899597
141	0xbccbdcc1	-0.024885537
142	0x3debb3f2	0.11508931
143	0xbdd39a00	-0.103321075
144	0xbdf49719	-0.11942882
145	0x3dca570e	0.098798856
146	0xbdb882b4	-0.09009305
147	0x3dacb7eb	0.08433517
148	0x3da737e2	0.08164956
149	0x3d3bfd8b	0.045896094
150	0xbd2ba8c2	-0.041908987
151	0xbc2dd555	-0.010609944
152	0xbd87e92e	-0.06636272
153	0xbde880e6	-0.113527104
154	0xbd8bb1c0	-0.068210125
155	0xbd91694b	-0.07100161
156	0x3d66130f	0.05617052
157	0x3c87d915	0.016583005
158	0x3b07f5b3	0.0020745813
159	0xbc547fe8	-0.012969948
160	0x3e0d5481	0.13801767
161	0x3ccc605b	0.02494829
162	0x3e07a191	0.13245226
163	0x3d9daa5e	0.076985106
164	0xba8fbadc	-0.0010965723
165	0xbe39d323	-0.18146949
166	0x3d8f66f1	0.070020564
167	0xbdd72eec	-0.105069965
168	0x3e1a8fc6	0.15093908
169	0xbd236e81	-0.039900307
170	0x3d80a926	0.062822625
171	0x3d7dc738	0.061957568
172	0x3b63dd9c	0.003476954
173	0x3dbe18f3	0.092821024
174	0xbdd39221	-0.10330606
175	0xbdad789f	-0.08470272
176	0x3caffd69	0.02148314
177	0x3d5e0b39	0.05420992
178	0x3d2423c6	0.04007318
179	0x3dea76a3	0.114484094
180	0x3d59ce70	0.05317539
181	0x3dbd3478	0.09238523
182	0xbc0ca950	-0.008585289
183	0xbc3dc2b8	-0.011582069
184	0xbc9a9249	-0.018868582
185	0x3b2b470e	0.0026134881
186	0x3af31688	0.0018546144
187	0x3db8c1ec	0.09021363
188	0x3c950826	0.018192362
189	0xbc49369d	-0.012281087
190	0x3d7b7ff4	0.061401322
191	0x3d2914d3	0.041279625
192	0x3db87e59	0.09008474
193	0xbd00261c	-0.031286344
194	0xbda8d022	-0.08242823
195	0x3d383cfe	0.04498004
196	0x3c65446d	0.013993365
197	0x3d9cfe59	0.076657005
198	0x3da5bee8	0.08093053
199	0x3d0aa4f3	0.033848714
200	0xbdea1ab1	-0.11430872
201	0xbe0a6cd4	-0.13518077
202	0x3d06ed28	0.032941014
203	0x3dfbfd5f	0.12304186
204	0xbd365955	-0.044518787
205	0xbd957a1e	-0.07298683
206	0x3d688fb4	0.05677767
207	0xbdc5e916	-0.09663598
208	0xbb3e1c3f	-0.0029008535
209	0xbdfd6163	-0.12372091
210	0xbe087efb	-0.13329689
211	0xbdb1d432	-0.08683051
212	0xbd6f447b	-0.058414917
213	0x3ca83161	0.020531358
214	0x3d7964ab	0.06088702
215	0xbdc1c638	-0.09461635
216	0x3c004663	0.0078292815
217	0x3bdb3dbb	0.0066907085
218	0xbd51da0b	-0.051233333
219	0x3cad98fe	0.021191116
220	0x3d719ac7	0.058985498
221	0xbd865d0f	-0.06560718
222	0x3db1f76f	0.08689772
223	0x3df0cfd5	0.11758391
224	0x3d85e77b	0.06538292
225	0xbbef7515	-0.0073076584
226	0xbd57e315	-0.052706797
227	0xbdeacc25	-0.11464719
228	0x3c433a22	0.011915715
229	0xbc1fc265	-0.009750937
230	0x3cea89d6	0.028630178
231	0xbd1cc247	-0.038271215
232	0x3e0433f4	0.12910444
233	0xbc5bb665	-0.013410185
234	0x3d6da8c4	0.058022276
235	0xbd18a348	-0.037265092
236	0x3d83727b	0.0641832
237	0x3de71ff7	0.11285394
238	0x3d7ad083	0.06123401
239	0xbcdd4952	-0.0270125
240	0xbcc3a8b9	-0.023884164
241	0xbe0c424a	-0.13697162
242	0xbdb2dfc4	-0.08734086
243	0xbd9a4583	-0.075327896
244	0x3d9eee2b	0.07760271
245	0xbd98e4de	-0.07465528
246	0x3c19fc0c	0.009398472
247	0xbdd365b2	-0.10322131
248	0xbd002446	-0.031284593
249	0x3da13faf	0.07873475
250	0x3d6889d1	0.056772057
251	0x3c264dbb	0.010150368
252	0x3d3e299c	0.0464264
253	0x3d7d4c35	0.061840255
254	0x3d7a2ab2	0.061075874
255	0xbd90f413	-0.070778035

value_layer.2.bias f4 [64]
0	0x3e0aab72	0.13541964
1	0xbd770fab	-0.060317677
2	0xbb8a4798	-0.0042199604
3	0xbe13cec5	-0.14434345
4	0x3cf2fd9f	0.029661952
5	0x3e14b5ab	0.14522426
6	0xbd44d68f	-0.04805618
7	0xbe26da85	-0.16294296
8	0xbdd24a3a	-0.10268064
9	0xbd219518	-0.039448828
10	0xbd583614	-0.052785948
11	0xbde4a189	-0.11163623
12	0xbca198bb	-0.019726148
13	0xbdac8917	-0.08424585
14	0xbde0f9a1	-0.10985113
15	0x3d164c06	0.036693595
16	0x3a53391b	0.00080575206
17	0xbc22ce4b	-0.009936879
18	0xbdcc6868	-0.099808514
19	0x3d9699a3	0.07353523
20	0xbcf40a4d	-0.029790068
21	0xbbdf5bfd	-0.006816386
22	0x3d7a5890	0.061119616
23	0x3d55aabf	0.05216479
24	0x3de121df	0.109927885
25	0x3dd66427	0.10468321
26	0xbd25bd80	-0.040463924
27	0x3e373f50	0.17895246
28	0x3d2053cb	0.03914241
29	0x3d847b7d	0.06468866
30	0xbcd1c448	-0.02560629
31	0x3bc1ee4c	0.0059183
32	0x3dd3a40d	0.103340246
33	0xbd1653c0	-0.036700964
34	0x3d46ae69	0.048506174
35	0xbd30adda	-0.043134548
36	0x3ae8c977	0.0017760237
37	0xbdd93a8e	-0.106068715
38	0xbda2f701	-0.079572685
39	0x3cf7c1be	0.03024375
40	0xbd2e6c07	-0.04258349
41	0x3d99085f	0.074723
42	0x3e1de566	0.1541954
43	0xbdc3f313	-0.09567847
44	0xbd62c096	-0.055359446
45	0xbcfab37e	-0.030603167
46	0x3d3f24a7	0.046665814
47	0xbc805655	-0.015666166
48	0xbe1d84dc	-0.15382713
49	0xbdf2f2f3	-0.11862745
50	0x3c6d1faf	0.014472886
51	0xbd82718b	-0.06369313
52	0xbd7ce8d1	-0.06174547
53	0x3d03f1a8	0.032212883
54	0xbca5be65	-0.020232389
55	0xbd21426d	-0.03936999
56	0xbcd6ceb0	-0.026221603
57	0x3d06236a	0.032748617
58	0xbd13b1b7	-0.036058154
59	0xbd586b41	-0.05283666
60	0xbdd0f9a7	-0.102038674
61	0x3d6a7174	0.057237104
62	0xbaf3e1c7	-0.0018606716
63	0xbe181405	-0.14851387

value_layer.4.weight f4 [1, 64]
0	0xbdfb67e4	-0.12275675
1	0xbcdfbaeb	-0.02731081
2	0x3db02382	0.086005226
3	0x3cbcc4f7	0.023043139
4	0xbdac3dc2	-0.08410217
5	0xbe0e19c0	-0.1387701
6	0xbdb4f476	-0.0883569
7	0x3d6b4760	0.057441115
8	0x3dc309b1	0.09523333
9	0x3dcb499d	0.0992615
10	0x3d0fcb64	0.035106078
11	0x3dd9f359	0.10642118
12	0x3d14042b	0.036136787
13	0x3d2278bd	0.039665926
14	0x3dbe943a	0.09305616
15	0xbd8dda9f	-0.06926464
16	0x3c04395e	0.008070318
17	0x3c41af3b	0.011821563
18	0x3dacef0d	0.08444033
19	0x3c98357a	0.018580187
20	0x3dbf553b	0.09342428
21	0xbdfdff5c	-0.124022216
22	0x3dc07dbd	0.09398983
23	0xbe11f1a5	-0.14252336
24	0xbdb58320	-0.08862901
25	0xbdfa70d8	-0.122285545
26	0x3cdbafc6	0.026817214
27	0xbd7d5423	-0.061847817
28	0xbe1d9d2e	-0.1539199
29	0x3dd22f95	0.10262982
30	0x3d56faca	0.052485265
31	0x3dce6ac2	0.10078956
32	0xbdfd3c0b	-0.12364968
33	0xbe12793c	-0.1430406
34	0x3d265629	0.040609512
35	0x3d941612	0.07230772
36	0x3ddf6a9c	0.10909006
37	0x3db1ea45	0.086872615
38	0x3d8dbd76	0.069209024
39	0x3d176903	0.03696538
40	0xbdb27de2	-0.087154165
41	0xbdfa8979	-0.12233252
42	0xbe067978	-0.13132274
43	0xbdee4985	-0.116351165
44	0x3cea4dff	0.028601645
45	0x3da79e0e	0.081844434
46	0x3dfe0bf7	0.12404626
47	0xbe00379a	-0.1252121
48	0x3da73d1d	0.08165953
49	0x3e1d5ce2	0.15367463
50	0x3d35ffb6	0.044433318
51	0xbd802eef	-0.06258952
52	0xbd78a049	-0.060699735
53	0xbd2aea11	-0.04172713
54	0x3d9866da	0.074414924
55	0xbd960d22	-0.07326724
56	0xbd6d34c3	-0.057911646
57	0x3dc481aa	0.09595044
58	0xbd8f7304	-0.07004359
59	0xbd20d2ff	-0.03926372
60	0x3d4c2972	0.049844213
61	0x3e000aa8	0.12504065
62	0xbca963e4	-0.020677514
63	0x3d365b1a	0.044520475
